…
False, growth=36, layers=40, learningratescheduler='cifarschedular', logdir='../logs/densenetexpanderbc2wide_cifar10_40_36_expandSize2', lr=0.1, manualSeed=123, maxlr=0.1, minlr=0.0005, model_def='densenetexpander2_cifar', momentum=0.9, name='densenetexpanderbc2wide_cifar10_40_36_expandSize2', nclasses=10, nesterov=True, ngpus=1, optimType='sgd', pretrained=False, pretrained_file='', printfreq=200, reduce=0.5, resume='', start_epoch=0, store='', tenCrop=False, tensorboard=True, testOnly=False, verbose=False, weightDecay=0.0001, weight_init=False, widen_factor=4, workers=2)
DenseNet3 (
  (conv1): Conv2d(3, 72, kernel_size=(3, 3), stride=(1, 1), padding=(1, 1), bias=False)
  (block1): DenseBlock (
    (layer): Sequential (
      (0): BottleneckBlock (
        (bn1): BatchNorm2d(72, eps=1e-05, momentum=0.1, affine=True)
        (relu): ReLU (inplace)
        (conv1): ExpanderConv2d (
        )
        (bn2): BatchNorm2d(144, eps=1e-05, momentum=0.1, affine=True)
        (conv2): ExpanderConv2d (
        )
      )
      (1): BottleneckBlock (
        (bn1): BatchNorm2d(108, eps=1e-05, momentum=0.1, affine=True)
        (relu): ReLU (inplace)
        (conv1): ExpanderConv2d (
        )
        (bn2): BatchNorm2d(144, eps=1e-05, momentum=0.1, affine=True)
        (conv2): ExpanderConv2d (
        )
      )
      (2): BottleneckBlock (
        (bn1): BatchNorm2d(144, eps=1e-05, momentum=0.1, affine=True)
        (relu): ReLU (inplace)
        (conv1): ExpanderConv2d (
        )
        (bn2): BatchNorm2d(144, eps=1e-05, momentum=0.1, affine=True)
        (conv2): ExpanderConv2d (
        )
      )
      (3): BottleneckBlock (
        (bn1): BatchNorm2d(180, eps=1e-05, momentum=0.1, affine=True)
        (relu): ReLU (inplace)
        (conv1): ExpanderConv2d (
        )
        (bn2): BatchNorm2d(144, eps=1e-05, momentum=0.1, affine=True)
        (conv2): ExpanderConv2d (
        )
      )
      (4): BottleneckBlock (
        (bn1): BatchNorm2d(216, eps=1e-05, momentum=0.1, affine=True)
        (relu): ReLU (inplace)
        (conv1): ExpanderConv2d (
        )
        (bn2): BatchNorm2d(144, eps=1e-05, momentum=0.1, affine=True)
        (conv2): ExpanderConv2d (
        )
      )
      (5): BottleneckBlock (
        (bn1): BatchNorm2d(252, eps=1e-05, momentum=0.1, affine=True)
        (relu): ReLU (inplace)
        (conv1): ExpanderConv2d (
        )
        (bn2): BatchNorm2d(144, eps=1e-05, momentum=0.1, affine=True)
        (conv2): ExpanderConv2d (
        )
      )
    )
  )
  (trans1): TransitionBlock (
    (bn1): BatchNorm2d(288, eps=1e-05, momentum=0.1, affine=True)
    (relu): ReLU (inplace)
    (conv1): Conv2d(288, 144, kernel_size=(1, 1), stride=(1, 1), bias=False)
  )
  (block2): DenseBlock (
    (layer): Sequential (
      (0): BottleneckBlock (
        (bn1): BatchNorm2d(144, eps=1e-05, momentum=0.1, affine=True)
        (relu): ReLU (inplace)
        (conv1): ExpanderConv2d (
        )
        (bn2): BatchNorm2d(144, eps=1e-05, momentum=0.1, affine=True)
        (conv2): ExpanderConv2d (
        )
      )
      (1): BottleneckBlock (
        (bn1): BatchNorm2d(180, eps=1e-05, momentum=0.1, affine=True)
        (relu): ReLU (inplace)
        (conv1): ExpanderConv2d (
        )
        (bn2): BatchNorm2d(144, eps=1e-05, momentum=0.1, affine=True)
        (conv2): ExpanderConv2d (
        )
      )
      (2): BottleneckBlock (
        (bn1): BatchNorm2d(216, eps=1e-05, momentum=0.1, affine=True)
        (relu): ReLU (inplace)
        (conv1): ExpanderConv2d (
        )
        (bn2): BatchNorm2d(144, eps=1e-05, momentum=0.1, affine=True)
        (conv2): ExpanderConv2d (
        )
      )
      (3): BottleneckBlock (
        (bn1): BatchNorm2d(252, eps=1e-05, momentum=0.1, affine=True)
        (relu): ReLU (inplace)
        (conv1): ExpanderConv2d (
        )
        (bn2): BatchNorm2d(144, eps=1e-05, momentum=0.1, affine=True)
        (conv2): ExpanderConv2d (
        )
      )
      (4): BottleneckBlock (
        (bn1): BatchNorm2d(288, eps=1e-05, momentum=0.1, affine=True)
        (relu): ReLU (inplace)
        (conv1): ExpanderConv2d (
        )
        (bn2): BatchNorm2d(144, eps=1e-05, momentum=0.1, affine=True)
        (conv2): ExpanderConv2d (
        )
      )
      (5): BottleneckBlock (
        (bn1): BatchNorm2d(324, eps=1e-05, momentum=0.1, affine=True)
        (relu): ReLU (inplace)
        (conv1): ExpanderConv2d (
        )
        (bn2): BatchNorm2d(144, eps=1e-05, momentum=0.1, affine=True)
        (conv2): ExpanderConv2d (
        )
      )
    )
  )
  (trans2): TransitionBlock (
    (bn1): BatchNorm2d(360, eps=1e-05, momentum=0.1, affine=True)
    (relu): ReLU (inplace)
    (conv1): Conv2d(360, 180, kernel_size=(1, 1), stride=(1, 1), bias=False)
  )
  (block3): DenseBlock (
    (layer): Sequential (
      (0): BottleneckBlock (
        (bn1): BatchNorm2d(180, eps=1e-05, momentum=0.1, affine=True)
        (relu): ReLU (inplace)
        (conv1): ExpanderConv2d (
        )
        (bn2): BatchNorm2d(144, eps=1e-05, momentum=0.1, affine=True)
        (conv2): ExpanderConv2d (
        )
      )
      (1): BottleneckBlock (
        (bn1): BatchNorm2d(216, eps=1e-05, momentum=0.1, affine=True)
        (relu): ReLU (inplace)
        (conv1): ExpanderConv2d (
        )
        (bn2): BatchNorm2d(144, eps=1e-05, momentum=0.1, affine=True)
        (conv2): ExpanderConv2d (
        )
      )
      (2): BottleneckBlock (
        (bn1): BatchNorm2d(252, eps=1e-05, momentum=0.1, affine=True)
        (relu): ReLU (inplace)
        (conv1): ExpanderConv2d (
        )
        (bn2): BatchNorm2d(144, eps=1e-05, momentum=0.1, affine=True)
        (conv2): ExpanderConv2d (
        )
      )
      (3): BottleneckBlock (
        (bn1): BatchNorm2d(288, eps=1e-05, momentum=0.1, affine=True)
        (relu): ReLU (inplace)
        (conv1): ExpanderConv2d (
        )
        (bn2): BatchNorm2d(144, eps=1e-05, momentum=0.1, affine=True)
        (conv2): ExpanderConv2d (
        )
      )
      (4): BottleneckBlock (
        (bn1): BatchNorm2d(324, eps=1e-05, momentum=0.1, affine=True)
        (relu): ReLU (inplace)
        (conv1): ExpanderConv2d (
        )
        (bn2): BatchNorm2d(144, eps=1e-05, momentum=0.1, affine=True)
        (conv2): ExpanderConv2d (
        )
      )
      (5): BottleneckBlock (
        (bn1): BatchNorm2d(360, eps=1e-05, momentum=0.1, affine=True)
        (relu): ReLU (inplace)
        (conv1): ExpanderConv2d (
        )
        (bn2): BatchNorm2d(144, eps=1e-05, momentum=0.1, affine=True)
        (conv2): ExpanderConv2d (
        )
      )
    )
  )
  (bn1): BatchNorm2d(396, eps=1e-05, momentum=0.1, affine=True)
  (relu): ReLU (inplace)
  (fc): Linear (396 -> 10)
)
Files already downloaded and verified
Starting epoch number: 0 Learning rate: 0.1
Train: [0]	Time 65.092	Data 0.373	Loss 1.362	Prec@1 50.0780	Prec@5 92.3960	
Val: [0]	Time 4.000	Data 0.280	Loss 1.301	Prec@1 56.9700	Prec@5 94.4500	
Best Prec@1: [56.970]	
Starting epoch number: 1 Learning rate: 0.1
Train: [1]	Time 63.705	Data 0.388	Loss 0.843	Prec@1 70.1780	Prec@5 97.7420	
…
