…
alse, expandConfig=None, expandSize=2, from_modelzoo=False, growth=100, layers=40, learningratescheduler='cifarschedular', logdir='../logs/densenetbc_cifar100_40_100', lr=0.1, manualSeed=123, maxlr=0.1, minlr=0.0005, model_def='densenet_cifar', momentum=0.9, name='densenetbc_cifar100_40_100', nclasses=100, nesterov=True, ngpus=1, optimType='sgd', pretrained=False, pretrained_file='', printfreq=200, reduce=0.5, resume='', start_epoch=0, store='', tenCrop=False, tensorboard=True, testOnly=False, verbose=False, weightDecay=0.0001, weight_init=False, widen_factor=4, workers=2)
DenseNet3 (
  (conv1): Conv2d(3, 200, kernel_size=(3, 3), stride=(1, 1), padding=(1, 1), bias=False)
  (block1): DenseBlock (
    (layer): Sequential (
      (0): BottleneckBlock (
        (bn1): BatchNorm2d(200, eps=1e-05, momentum=0.1, affine=True)
        (relu): ReLU (inplace)
        (conv1): Conv2d(200, 400, kernel_size=(1, 1), stride=(1, 1), bias=False)
        (bn2): BatchNorm2d(400, eps=1e-05, momentum=0.1, affine=True)
        (conv2): Conv2d(400, 100, kernel_size=(3, 3), stride=(1, 1), padding=(1, 1), bias=False)
      )
      (1): BottleneckBlock (
        (bn1): BatchNorm2d(300, eps=1e-05, momentum=0.1, affine=True)
        (relu): ReLU (inplace)
        (conv1): Conv2d(300, 400, kernel_size=(1, 1), stride=(1, 1), bias=False)
        (bn2): BatchNorm2d(400, eps=1e-05, momentum=0.1, affine=True)
        (conv2): Conv2d(400, 100, kernel_size=(3, 3), stride=(1, 1), padding=(1, 1), bias=False)
      )
      (2): BottleneckBlock (
        (bn1): BatchNorm2d(400, eps=1e-05, momentum=0.1, affine=True)
        (relu): ReLU (inplace)
        (conv1): Conv2d(400, 400, kernel_size=(1, 1), stride=(1, 1), bias=False)
        (bn2): BatchNorm2d(400, eps=1e-05, momentum=0.1, affine=True)
        (conv2): Conv2d(400, 100, kernel_size=(3, 3), stride=(1, 1), padding=(1, 1), bias=False)
      )
      (3): BottleneckBlock (
        (bn1): BatchNorm2d(500, eps=1e-05, momentum=0.1, affine=True)
        (relu): ReLU (inplace)
        (conv1): Conv2d(500, 400, kernel_size=(1, 1), stride=(1, 1), bias=False)
        (bn2): BatchNorm2d(400, eps=1e-05, momentum=0.1, affine=True)
        (conv2): Conv2d(400, 100, kernel_size=(3, 3), stride=(1, 1), padding=(1, 1), bias=False)
      )
      (4): BottleneckBlock (
        (bn1): BatchNorm2d(600, eps=1e-05, momentum=0.1, affine=True)
        (relu): ReLU (inplace)
        (conv1): Conv2d(600, 400, kernel_size=(1, 1), stride=(1, 1), bias=False)
        (bn2): BatchNorm2d(400, eps=1e-05, momentum=0.1, affine=True)
        (conv2): Conv2d(400, 100, kernel_size=(3, 3), stride=(1, 1), padding=(1, 1), bias=False)
      )
      (5): BottleneckBlock (
        (bn1): BatchNorm2d(700, eps=1e-05, momentum=0.1, affine=True)
        (relu): ReLU (inplace)
        (conv1): Conv2d(700, 400, kernel_size=(1, 1), stride=(1, 1), bias=False)
        (bn2): BatchNorm2d(400, eps=1e-05, momentum=0.1, affine=True)
        (conv2): Conv2d(400, 100, kernel_size=(3, 3), stride=(1, 1), padding=(1, 1), bias=False)
      )
    )
  )
  (trans1): TransitionBlock (
    (bn1): BatchNorm2d(800, eps=1e-05, momentum=0.1, affine=True)
    (relu): ReLU (inplace)
    (conv1): Conv2d(800, 400, kernel_size=(1, 1), stride=(1, 1), bias=False)
  )
  (block2): DenseBlock (
    (layer): Sequential (
      (0): BottleneckBlock (
        (bn1): BatchNorm2d(400, eps=1e-05, momentum=0.1, affine=True)
        (relu): ReLU (inplace)
        (conv1): Conv2d(400, 400, kernel_size=(1, 1), stride=(1, 1), bias=False)
        (bn2): BatchNorm2d(400, eps=1e-05, momentum=0.1, affine=True)
        (conv2): Conv2d(400, 100, kernel_size=(3, 3), stride=(1, 1), padding=(1, 1), bias=False)
      )
      (1): BottleneckBlock (
        (bn1): BatchNorm2d(500, eps=1e-05, momentum=0.1, affine=True)
        (relu): ReLU (inplace)
        (conv1): Conv2d(500, 400, kernel_size=(1, 1), stride=(1, 1), bias=False)
        (bn2): BatchNorm2d(400, eps=1e-05, momentum=0.1, affine=True)
        (conv2): Conv2d(400, 100, kernel_size=(3, 3), stride=(1, 1), padding=(1, 1), bias=False)
      )
      (2): BottleneckBlock (
        (bn1): BatchNorm2d(600, eps=1e-05, momentum=0.1, affine=True)
        (relu): ReLU (inplace)
        (conv1): Conv2d(600, 400, kernel_size=(1, 1), stride=(1, 1), bias=False)
        (bn2): BatchNorm2d(400, eps=1e-05, momentum=0.1, affine=True)
        (conv2): Conv2d(400, 100, kernel_size=(3, 3), stride=(1, 1), padding=(1, 1), bias=False)
      )
      (3): BottleneckBlock (
        (bn1): BatchNorm2d(700, eps=1e-05, momentum=0.1, affine=True)
        (relu): ReLU (inplace)
        (conv1): Conv2d(700, 400, kernel_size=(1, 1), stride=(1, 1), bias=False)
        (bn2): BatchNorm2d(400, eps=1e-05, momentum=0.1, affine=True)
        (conv2): Conv2d(400, 100, kernel_size=(3, 3), stride=(1, 1), padding=(1, 1), bias=False)
      )
      (4): BottleneckBlock (
        (bn1): BatchNorm2d(800, eps=1e-05, momentum=0.1, affine=True)
        (relu): ReLU (inplace)
        (conv1): Conv2d(800, 400, kernel_size=(1, 1), stride=(1, 1), bias=False)
        (bn2): BatchNorm2d(400, eps=1e-05, momentum=0.1, affine=True)
        (conv2): Conv2d(400, 100, kernel_size=(3, 3), stride=(1, 1), padding=(1, 1), bias=False)
      )
      (5): BottleneckBlock (
        (bn1): BatchNorm2d(900, eps=1e-05, momentum=0.1, affine=True)
        (relu): ReLU (inplace)
        (conv1): Conv2d(900, 400, kernel_size=(1, 1), stride=(1, 1), bias=False)
        (bn2): BatchNorm2d(400, eps=1e-05, momentum=0.1, affine=True)
        (conv2): Conv2d(400, 100, kernel_size=(3, 3), stride=(1, 1), padding=(1, 1), bias=False)
      )
    )
  )
  (trans2): TransitionBlock (
    (bn1): BatchNorm2d(1000, eps=1e-05, momentum=0.1, affine=True)
    (relu): ReLU (inplace)
    (conv1): Conv2d(1000, 500, kernel_size=(1, 1), stride=(1, 1), bias=False)
  )
  (block3): DenseBlock (
    (layer): Sequential (
      (0): BottleneckBlock (
        (bn1): BatchNorm2d(500, eps=1e-05, momentum=0.1, affine=True)
        (relu): ReLU (inplace)
        (conv1): Conv2d(500, 400, kernel_size=(1, 1), stride=(1, 1), bias=False)
        (bn2): BatchNorm2d(400, eps=1e-05, momentum=0.1, affine=True)
        (conv2): Conv2d(400, 100, kernel_size=(3, 3), stride=(1, 1), padding=(1, 1), bias=False)
      )
      (1): BottleneckBlock (
        (bn1): BatchNorm2d(600, eps=1e-05, momentum=0.1, affine=True)
        (relu): ReLU (inplace)
        (conv1): Conv2d(600, 400, kernel_size=(1, 1), stride=(1, 1), bias=False)
        (bn2): BatchNorm2d(400, eps=1e-05, momentum=0.1, affine=True)
        (conv2): Conv2d(400, 100, kernel_size=(3, 3), stride=(1, 1), padding=(1, 1), bias=False)
      )
      (2): BottleneckBlock (
        (bn1): BatchNorm2d(700, eps=1e-05, momentum=0.1, affine=True)
        (relu): ReLU (inplace)
        (conv1): Conv2d(700, 400, kernel_size=(1, 1), stride=(1, 1), bias=False)
        (bn2): BatchNorm2d(400, eps=1e-05, momentum=0.1, affine=True)
        (conv2): Conv2d(400, 100, kernel_size=(3, 3), stride=(1, 1), padding=(1, 1), bias=False)
      )
      (3): BottleneckBlock (
        (bn1): BatchNorm2d(800, eps=1e-05, momentum=0.1, affine=True)
        (relu): ReLU (inplace)
        (conv1): Conv2d(800, 400, kernel_size=(1, 1), stride=(1, 1), bias=False)
        (bn2): BatchNorm2d(400, eps=1e-05, momentum=0.1, affine=True)
        (conv2): Conv2d(400, 100, kernel_size=(3, 3), stride=(1, 1), padding=(1, 1), bias=False)
      )
      (4): BottleneckBlock (
        (bn1): BatchNorm2d(900, eps=1e-05, momentum=0.1, affine=True)
        (relu): ReLU (inplace)
        (conv1): Conv2d(900, 400, kernel_size=(1, 1), stride=(1, 1), bias=False)
        (bn2): BatchNorm2d(400, eps=1e-05, momentum=0.1, affine=True)
        (conv2): Conv2d(400, 100, kernel_size=(3, 3), stride=(1, 1), padding=(1, 1), bias=False)
      )
      (5): BottleneckBlock (
        (bn1): BatchNorm2d(1000, eps=1e-05, momentum=0.1, affine=True)
        (relu): ReLU (inplace)
        (conv1): Conv2d(1000, 400, kernel_size=(1, 1), stride=(1, 1), bias=False)
        (bn2): BatchNorm2d(400, eps=1e-05, momentum=0.1, affine=True)
        (conv2): Conv2d(400, 100, kernel_size=(3, 3), stride=(1, 1), padding=(1, 1), bias=False)
      )
    )
  )
  (bn1): BatchNorm2d(1100, eps=1e-05, momentum=0.1, affine=True)
  (relu): ReLU (inplace)
  (fc): Linear (1100 -> 100)
)
Files already downloaded and verified
Starting epoch number: 0 Learning rate: 0.1
Train: [0]	Time 239.863	Data 0.372	Loss 3.768	Prec@1 12.2820	Prec@5 35.1240	
Val: [0]	Time 15.626	Data 0.106	Loss 3.503	Prec@1 17.9100	Prec@5 45.2400	
Best Prec@1: [17.910]	
Starting epoch number: 1 Learning rate: 0.1
Train: [1]	Time 241.821	Data 0.262	Loss 2.833	Prec@1 27.8220	Prec@5 59.4420	
…
