…
, growth=60, layers=58, learningratescheduler='cifarschedular', logdir='../logs/densenetexpanderbc2wide_cifar100_58_60_expandSize16', lr=0.1, manualSeed=123, maxlr=0.1, minlr=0.0005, model_def='densenetexpander2_cifar', momentum=0.9, name='densenetexpanderbc2wide_cifar100_58_60_expandSize16', nclasses=100, nesterov=True, ngpus=1, optimType='sgd', pretrained=False, pretrained_file='', printfreq=200, reduce=0.5, resume='', start_epoch=0, store='', tenCrop=False, tensorboard=True, testOnly=False, verbose=False, weightDecay=0.0001, weight_init=False, widen_factor=4, workers=2)
DenseNet3 (
  (conv1): Conv2d(3, 120, kernel_size=(3, 3), stride=(1, 1), padding=(1, 1), bias=False)
  (block1): DenseBlock (
    (layer): Sequential (
      (0): BottleneckBlock (
        (bn1): BatchNorm2d(120, eps=1e-05, momentum=0.1, affine=True)
        (relu): ReLU (inplace)
        (conv1): ExpanderConv2d (
        )
        (bn2): BatchNorm2d(240, eps=1e-05, momentum=0.1, affine=True)
        (conv2): ExpanderConv2d (
        )
      )
      (1): BottleneckBlock (
        (bn1): BatchNorm2d(180, eps=1e-05, momentum=0.1, affine=True)
        (relu): ReLU (inplace)
        (conv1): ExpanderConv2d (
        )
        (bn2): BatchNorm2d(240, eps=1e-05, momentum=0.1, affine=True)
        (conv2): ExpanderConv2d (
        )
      )
      (2): BottleneckBlock (
        (bn1): BatchNorm2d(240, eps=1e-05, momentum=0.1, affine=True)
        (relu): ReLU (inplace)
        (conv1): ExpanderConv2d (
        )
        (bn2): BatchNorm2d(240, eps=1e-05, momentum=0.1, affine=True)
        (conv2): ExpanderConv2d (
        )
      )
      (3): BottleneckBlock (
        (bn1): BatchNorm2d(300, eps=1e-05, momentum=0.1, affine=True)
        (relu): ReLU (inplace)
        (conv1): ExpanderConv2d (
        )
        (bn2): BatchNorm2d(240, eps=1e-05, momentum=0.1, affine=True)
        (conv2): ExpanderConv2d (
        )
      )
      (4): BottleneckBlock (
        (bn1): BatchNorm2d(360, eps=1e-05, momentum=0.1, affine=True)
        (relu): ReLU (inplace)
        (conv1): ExpanderConv2d (
        )
        (bn2): BatchNorm2d(240, eps=1e-05, momentum=0.1, affine=True)
        (conv2): ExpanderConv2d (
        )
      )
      (5): BottleneckBlock (
        (bn1): BatchNorm2d(420, eps=1e-05, momentum=0.1, affine=True)
        (relu): ReLU (inplace)
        (conv1): ExpanderConv2d (
        )
        (bn2): BatchNorm2d(240, eps=1e-05, momentum=0.1, affine=True)
        (conv2): ExpanderConv2d (
        )
      )
      (6): BottleneckBlock (
        (bn1): BatchNorm2d(480, eps=1e-05, momentum=0.1, affine=True)
        (relu): ReLU (inplace)
        (conv1): ExpanderConv2d (
        )
        (bn2): BatchNorm2d(240, eps=1e-05, momentum=0.1, affine=True)
        (conv2): ExpanderConv2d (
        )
      )
      (7): BottleneckBlock (
        (bn1): BatchNorm2d(540, eps=1e-05, momentum=0.1, affine=True)
        (relu): ReLU (inplace)
        (conv1): ExpanderConv2d (
        )
        (bn2): BatchNorm2d(240, eps=1e-05, momentum=0.1, affine=True)
        (conv2): ExpanderConv2d (
        )
      )
      (8): BottleneckBlock (
        (bn1): BatchNorm2d(600, eps=1e-05, momentum=0.1, affine=True)
        (relu): ReLU (inplace)
        (conv1): ExpanderConv2d (
        )
        (bn2): BatchNorm2d(240, eps=1e-05, momentum=0.1, affine=True)
        (conv2): ExpanderConv2d (
        )
      )
    )
  )
  (trans1): TransitionBlock (
    (bn1): BatchNorm2d(660, eps=1e-05, momentum=0.1, affine=True)
    (relu): ReLU (inplace)
    (conv1): Conv2d(660, 330, kernel_size=(1, 1), stride=(1, 1), bias=False)
  )
  (block2): DenseBlock (
    (layer): Sequential (
      (0): BottleneckBlock (
        (bn1): BatchNorm2d(330, eps=1e-05, momentum=0.1, affine=True)
        (relu): ReLU (inplace)
        (conv1): ExpanderConv2d (
        )
        (bn2): BatchNorm2d(240, eps=1e-05, momentum=0.1, affine=True)
        (conv2): ExpanderConv2d (
        )
      )
      (1): BottleneckBlock (
        (bn1): BatchNorm2d(390, eps=1e-05, momentum=0.1, affine=True)
        (relu): ReLU (inplace)
        (conv1): ExpanderConv2d (
        )
        (bn2): BatchNorm2d(240, eps=1e-05, momentum=0.1, affine=True)
        (conv2): ExpanderConv2d (
        )
      )
      (2): BottleneckBlock (
        (bn1): BatchNorm2d(450, eps=1e-05, momentum=0.1, affine=True)
        (relu): ReLU (inplace)
        (conv1): ExpanderConv2d (
        )
        (bn2): BatchNorm2d(240, eps=1e-05, momentum=0.1, affine=True)
        (conv2): ExpanderConv2d (
        )
      )
      (3): BottleneckBlock (
        (bn1): BatchNorm2d(510, eps=1e-05, momentum=0.1, affine=True)
        (relu): ReLU (inplace)
        (conv1): ExpanderConv2d (
        )
        (bn2): BatchNorm2d(240, eps=1e-05, momentum=0.1, affine=True)
        (conv2): ExpanderConv2d (
        )
      )
      (4): BottleneckBlock (
        (bn1): BatchNorm2d(570, eps=1e-05, momentum=0.1, affine=True)
        (relu): ReLU (inplace)
        (conv1): ExpanderConv2d (
        )
        (bn2): BatchNorm2d(240, eps=1e-05, momentum=0.1, affine=True)
        (conv2): ExpanderConv2d (
        )
      )
      (5): BottleneckBlock (
        (bn1): BatchNorm2d(630, eps=1e-05, momentum=0.1, affine=True)
        (relu): ReLU (inplace)
        (conv1): ExpanderConv2d (
        )
        (bn2): BatchNorm2d(240, eps=1e-05, momentum=0.1, affine=True)
        (conv2): ExpanderConv2d (
        )
      )
      (6): BottleneckBlock (
        (bn1): BatchNorm2d(690, eps=1e-05, momentum=0.1, affine=True)
        (relu): ReLU (inplace)
        (conv1): ExpanderConv2d (
        )
        (bn2): BatchNorm2d(240, eps=1e-05, momentum=0.1, affine=True)
        (conv2): ExpanderConv2d (
        )
      )
      (7): BottleneckBlock (
        (bn1): BatchNorm2d(750, eps=1e-05, momentum=0.1, affine=True)
        (relu): ReLU (inplace)
        (conv1): ExpanderConv2d (
        )
        (bn2): BatchNorm2d(240, eps=1e-05, momentum=0.1, affine=True)
        (conv2): ExpanderConv2d (
        )
      )
      (8): BottleneckBlock (
        (bn1): BatchNorm2d(810, eps=1e-05, momentum=0.1, affine=True)
        (relu): ReLU (inplace)
        (conv1): ExpanderConv2d (
        )
        (bn2): BatchNorm2d(240, eps=1e-05, momentum=0.1, affine=True)
        (conv2): ExpanderConv2d (
        )
      )
    )
  )
  (trans2): TransitionBlock (
    (bn1): BatchNorm2d(870, eps=1e-05, momentum=0.1, affine=True)
    (relu): ReLU (inplace)
    (conv1): Conv2d(870, 435, kernel_size=(1, 1), stride=(1, 1), bias=False)
  )
  (block3): DenseBlock (
    (layer): Sequential (
      (0): BottleneckBlock (
        (bn1): BatchNorm2d(435, eps=1e-05, momentum=0.1, affine=True)
        (relu): ReLU (inplace)
        (conv1): ExpanderConv2d (
        )
        (bn2): BatchNorm2d(240, eps=1e-05, momentum=0.1, affine=True)
        (conv2): ExpanderConv2d (
        )
      )
      (1): BottleneckBlock (
        (bn1): BatchNorm2d(495, eps=1e-05, momentum=0.1, affine=True)
        (relu): ReLU (inplace)
        (conv1): ExpanderConv2d (
        )
        (bn2): BatchNorm2d(240, eps=1e-05, momentum=0.1, affine=True)
        (conv2): ExpanderConv2d (
        )
      )
      (2): BottleneckBlock (
        (bn1): BatchNorm2d(555, eps=1e-05, momentum=0.1, affine=True)
        (relu): ReLU (inplace)
        (conv1): ExpanderConv2d (
        )
        (bn2): BatchNorm2d(240, eps=1e-05, momentum=0.1, affine=True)
        (conv2): ExpanderConv2d (
        )
      )
      (3): BottleneckBlock (
        (bn1): BatchNorm2d(615, eps=1e-05, momentum=0.1, affine=True)
        (relu): ReLU (inplace)
        (conv1): ExpanderConv2d (
        )
        (bn2): BatchNorm2d(240, eps=1e-05, momentum=0.1, affine=True)
        (conv2): ExpanderConv2d (
        )
      )
      (4): BottleneckBlock (
        (bn1): BatchNorm2d(675, eps=1e-05, momentum=0.1, affine=True)
        (relu): ReLU (inplace)
        (conv1): ExpanderConv2d (
        )
        (bn2): BatchNorm2d(240, eps=1e-05, momentum=0.1, affine=True)
        (conv2): ExpanderConv2d (
        )
      )
      (5): BottleneckBlock (
        (bn1): BatchNorm2d(735, eps=1e-05, momentum=0.1, affine=True)
        (relu): ReLU (inplace)
        (conv1): ExpanderConv2d (
        )
        (bn2): BatchNorm2d(240, eps=1e-05, momentum=0.1, affine=True)
        (conv2): ExpanderConv2d (
        )
      )
      (6): BottleneckBlock (
        (bn1): BatchNorm2d(795, eps=1e-05, momentum=0.1, affine=True)
        (relu): ReLU (inplace)
        (conv1): ExpanderConv2d (
        )
        (bn2): BatchNorm2d(240, eps=1e-05, momentum=0.1, affine=True)
        (conv2): ExpanderConv2d (
        )
      )
      (7): BottleneckBlock (
        (bn1): BatchNorm2d(855, eps=1e-05, momentum=0.1, affine=True)
        (relu): ReLU (inplace)
        (conv1): ExpanderConv2d (
        )
        (bn2): BatchNorm2d(240, eps=1e-05, momentum=0.1, affine=True)
        (conv2): ExpanderConv2d (
        )
      )
      (8): BottleneckBlock (
        (bn1): BatchNorm2d(915, eps=1e-05, momentum=0.1, affine=True)
        (relu): ReLU (inplace)
        (conv1): ExpanderConv2d (
        )
        (bn2): BatchNorm2d(240, eps=1e-05, momentum=0.1, affine=True)
        (conv2): ExpanderConv2d (
        )
      )
    )
  )
  (bn1): BatchNorm2d(975, eps=1e-05, momentum=0.1, affine=True)
  (relu): ReLU (inplace)
  (fc): Linear (975 -> 100)
)
Files already downloaded and verified
Starting epoch number: 0 Learning rate: 0.1
Train: [0]	Time 195.450	Data 4.602	Loss 3.748	Prec@1 12.8400	Prec@5 35.5860	
Val: [0]	Time 11.967	Data 0.848	Loss 3.356	Prec@1 19.5500	Prec@5 48.5100	
Best Prec@1: [19.550]	
Starting epoch number: 1 Learning rate: 0.1
Train: [1]	Time 192.895	Data 5.255	Loss 2.781	Prec@1 28.9560	Prec@5 60.9740	
…
