…
uate=False, expandConfig=None, expandSize=2, from_modelzoo=False, growth=60, layers=40, learningratescheduler='cifarschedular', logdir='../logs/densenetbc_cifar10_40_60', lr=0.1, manualSeed=123, maxlr=0.1, minlr=0.0005, model_def='densenet_cifar', momentum=0.9, name='densenetbc_cifar10_40_60', nclasses=10, nesterov=True, ngpus=1, optimType='sgd', pretrained=False, pretrained_file='', printfreq=200, reduce=0.5, resume='', start_epoch=0, store='', tenCrop=False, tensorboard=True, testOnly=False, verbose=False, weightDecay=0.0001, weight_init=False, widen_factor=4, workers=2)
DenseNet3 (
  (conv1): Conv2d(3, 120, kernel_size=(3, 3), stride=(1, 1), padding=(1, 1), bias=False)
  (block1): DenseBlock (
    (layer): Sequential (
      (0): BottleneckBlock (
        (bn1): BatchNorm2d(120, eps=1e-05, momentum=0.1, affine=True)
        (relu): ReLU (inplace)
        (conv1): Conv2d(120, 240, kernel_size=(1, 1), stride=(1, 1), bias=False)
        (bn2): BatchNorm2d(240, eps=1e-05, momentum=0.1, affine=True)
        (conv2): Conv2d(240, 60, kernel_size=(3, 3), stride=(1, 1), padding=(1, 1), bias=False)
      )
      (1): BottleneckBlock (
        (bn1): BatchNorm2d(180, eps=1e-05, momentum=0.1, affine=True)
        (relu): ReLU (inplace)
        (conv1): Conv2d(180, 240, kernel_size=(1, 1), stride=(1, 1), bias=False)
        (bn2): BatchNorm2d(240, eps=1e-05, momentum=0.1, affine=True)
        (conv2): Conv2d(240, 60, kernel_size=(3, 3), stride=(1, 1), padding=(1, 1), bias=False)
      )
      (2): BottleneckBlock (
        (bn1): BatchNorm2d(240, eps=1e-05, momentum=0.1, affine=True)
        (relu): ReLU (inplace)
        (conv1): Conv2d(240, 240, kernel_size=(1, 1), stride=(1, 1), bias=False)
        (bn2): BatchNorm2d(240, eps=1e-05, momentum=0.1, affine=True)
        (conv2): Conv2d(240, 60, kernel_size=(3, 3), stride=(1, 1), padding=(1, 1), bias=False)
      )
      (3): BottleneckBlock (
        (bn1): BatchNorm2d(300, eps=1e-05, momentum=0.1, affine=True)
        (relu): ReLU (inplace)
        (conv1): Conv2d(300, 240, kernel_size=(1, 1), stride=(1, 1), bias=False)
        (bn2): BatchNorm2d(240, eps=1e-05, momentum=0.1, affine=True)
        (conv2): Conv2d(240, 60, kernel_size=(3, 3), stride=(1, 1), padding=(1, 1), bias=False)
      )
      (4): BottleneckBlock (
        (bn1): BatchNorm2d(360, eps=1e-05, momentum=0.1, affine=True)
        (relu): ReLU (inplace)
        (conv1): Conv2d(360, 240, kernel_size=(1, 1), stride=(1, 1), bias=False)
        (bn2): BatchNorm2d(240, eps=1e-05, momentum=0.1, affine=True)
        (conv2): Conv2d(240, 60, kernel_size=(3, 3), stride=(1, 1), padding=(1, 1), bias=False)
      )
      (5): BottleneckBlock (
        (bn1): BatchNorm2d(420, eps=1e-05, momentum=0.1, affine=True)
        (relu): ReLU (inplace)
        (conv1): Conv2d(420, 240, kernel_size=(1, 1), stride=(1, 1), bias=False)
        (bn2): BatchNorm2d(240, eps=1e-05, momentum=0.1, affine=True)
        (conv2): Conv2d(240, 60, kernel_size=(3, 3), stride=(1, 1), padding=(1, 1), bias=False)
      )
    )
  )
  (trans1): TransitionBlock (
    (bn1): BatchNorm2d(480, eps=1e-05, momentum=0.1, affine=True)
    (relu): ReLU (inplace)
    (conv1): Conv2d(480, 240, kernel_size=(1, 1), stride=(1, 1), bias=False)
  )
  (block2): DenseBlock (
    (layer): Sequential (
      (0): BottleneckBlock (
        (bn1): BatchNorm2d(240, eps=1e-05, momentum=0.1, affine=True)
        (relu): ReLU (inplace)
        (conv1): Conv2d(240, 240, kernel_size=(1, 1), stride=(1, 1), bias=False)
        (bn2): BatchNorm2d(240, eps=1e-05, momentum=0.1, affine=True)
        (conv2): Conv2d(240, 60, kernel_size=(3, 3), stride=(1, 1), padding=(1, 1), bias=False)
      )
      (1): BottleneckBlock (
        (bn1): BatchNorm2d(300, eps=1e-05, momentum=0.1, affine=True)
        (relu): ReLU (inplace)
        (conv1): Conv2d(300, 240, kernel_size=(1, 1), stride=(1, 1), bias=False)
        (bn2): BatchNorm2d(240, eps=1e-05, momentum=0.1, affine=True)
        (conv2): Conv2d(240, 60, kernel_size=(3, 3), stride=(1, 1), padding=(1, 1), bias=False)
      )
      (2): BottleneckBlock (
        (bn1): BatchNorm2d(360, eps=1e-05, momentum=0.1, affine=True)
        (relu): ReLU (inplace)
        (conv1): Conv2d(360, 240, kernel_size=(1, 1), stride=(1, 1), bias=False)
        (bn2): BatchNorm2d(240, eps=1e-05, momentum=0.1, affine=True)
        (conv2): Conv2d(240, 60, kernel_size=(3, 3), stride=(1, 1), padding=(1, 1), bias=False)
      )
      (3): BottleneckBlock (
        (bn1): BatchNorm2d(420, eps=1e-05, momentum=0.1, affine=True)
        (relu): ReLU (inplace)
        (conv1): Conv2d(420, 240, kernel_size=(1, 1), stride=(1, 1), bias=False)
        (bn2): BatchNorm2d(240, eps=1e-05, momentum=0.1, affine=True)
        (conv2): Conv2d(240, 60, kernel_size=(3, 3), stride=(1, 1), padding=(1, 1), bias=False)
      )
      (4): BottleneckBlock (
        (bn1): BatchNorm2d(480, eps=1e-05, momentum=0.1, affine=True)
        (relu): ReLU (inplace)
        (conv1): Conv2d(480, 240, kernel_size=(1, 1), stride=(1, 1), bias=False)
        (bn2): BatchNorm2d(240, eps=1e-05, momentum=0.1, affine=True)
        (conv2): Conv2d(240, 60, kernel_size=(3, 3), stride=(1, 1), padding=(1, 1), bias=False)
      )
      (5): BottleneckBlock (
        (bn1): BatchNorm2d(540, eps=1e-05, momentum=0.1, affine=True)
        (relu): ReLU (inplace)
        (conv1): Conv2d(540, 240, kernel_size=(1, 1), stride=(1, 1), bias=False)
        (bn2): BatchNorm2d(240, eps=1e-05, momentum=0.1, affine=True)
        (conv2): Conv2d(240, 60, kernel_size=(3, 3), stride=(1, 1), padding=(1, 1), bias=False)
      )
    )
  )
  (trans2): TransitionBlock (
    (bn1): BatchNorm2d(600, eps=1e-05, momentum=0.1, affine=True)
    (relu): ReLU (inplace)
    (conv1): Conv2d(600, 300, kernel_size=(1, 1), stride=(1, 1), bias=False)
  )
  (block3): DenseBlock (
    (layer): Sequential (
      (0): BottleneckBlock (
        (bn1): BatchNorm2d(300, eps=1e-05, momentum=0.1, affine=True)
        (relu): ReLU (inplace)
        (conv1): Conv2d(300, 240, kernel_size=(1, 1), stride=(1, 1), bias=False)
        (bn2): BatchNorm2d(240, eps=1e-05, momentum=0.1, affine=True)
        (conv2): Conv2d(240, 60, kernel_size=(3, 3), stride=(1, 1), padding=(1, 1), bias=False)
      )
      (1): BottleneckBlock (
        (bn1): BatchNorm2d(360, eps=1e-05, momentum=0.1, affine=True)
        (relu): ReLU (inplace)
        (conv1): Conv2d(360, 240, kernel_size=(1, 1), stride=(1, 1), bias=False)
        (bn2): BatchNorm2d(240, eps=1e-05, momentum=0.1, affine=True)
        (conv2): Conv2d(240, 60, kernel_size=(3, 3), stride=(1, 1), padding=(1, 1), bias=False)
      )
      (2): BottleneckBlock (
        (bn1): BatchNorm2d(420, eps=1e-05, momentum=0.1, affine=True)
        (relu): ReLU (inplace)
        (conv1): Conv2d(420, 240, kernel_size=(1, 1), stride=(1, 1), bias=False)
        (bn2): BatchNorm2d(240, eps=1e-05, momentum=0.1, affine=True)
        (conv2): Conv2d(240, 60, kernel_size=(3, 3), stride=(1, 1), padding=(1, 1), bias=False)
      )
      (3): BottleneckBlock (
        (bn1): BatchNorm2d(480, eps=1e-05, momentum=0.1, affine=True)
        (relu): ReLU (inplace)
        (conv1): Conv2d(480, 240, kernel_size=(1, 1), stride=(1, 1), bias=False)
        (bn2): BatchNorm2d(240, eps=1e-05, momentum=0.1, affine=True)
        (conv2): Conv2d(240, 60, kernel_size=(3, 3), stride=(1, 1), padding=(1, 1), bias=False)
      )
      (4): BottleneckBlock (
        (bn1): BatchNorm2d(540, eps=1e-05, momentum=0.1, affine=True)
        (relu): ReLU (inplace)
        (conv1): Conv2d(540, 240, kernel_size=(1, 1), stride=(1, 1), bias=False)
        (bn2): BatchNorm2d(240, eps=1e-05, momentum=0.1, affine=True)
        (conv2): Conv2d(240, 60, kernel_size=(3, 3), stride=(1, 1), padding=(1, 1), bias=False)
      )
      (5): BottleneckBlock (
        (bn1): BatchNorm2d(600, eps=1e-05, momentum=0.1, affine=True)
        (relu): ReLU (inplace)
        (conv1): Conv2d(600, 240, kernel_size=(1, 1), stride=(1, 1), bias=False)
        (bn2): BatchNorm2d(240, eps=1e-05, momentum=0.1, affine=True)
        (conv2): Conv2d(240, 60, kernel_size=(3, 3), stride=(1, 1), padding=(1, 1), bias=False)
      )
    )
  )
  (bn1): BatchNorm2d(660, eps=1e-05, momentum=0.1, affine=True)
  (relu): ReLU (inplace)
  (fc): Linear (660 -> 10)
)
Files already downloaded and verified
Starting epoch number: 0 Learning rate: 0.1
Train: [0]	Time 110.550	Data 0.315	Loss 1.452	Prec@1 47.2860	Prec@5 91.2840	
Val: [0]	Time 6.440	Data 0.119	Loss 1.243	Prec@1 57.0700	Prec@5 94.9400	
Best Prec@1: [57.070]	
Starting epoch number: 1 Learning rate: 0.1
Train: [1]	Time 108.850	Data 0.309	Loss 0.888	Prec@1 68.3840	Prec@5 97.4840	
…
