…
uate=False, expandConfig=None, expandSize=2, from_modelzoo=False, growth=24, layers=40, learningratescheduler='cifarschedular', logdir='../logs/densenetbc_cifar10_40_24', lr=0.1, manualSeed=123, maxlr=0.1, minlr=0.0005, model_def='densenet_cifar', momentum=0.9, name='densenetbc_cifar10_40_24', nclasses=10, nesterov=True, ngpus=1, optimType='sgd', pretrained=False, pretrained_file='', printfreq=200, reduce=0.5, resume='', start_epoch=0, store='', tenCrop=False, tensorboard=True, testOnly=False, verbose=False, weightDecay=0.0001, weight_init=False, widen_factor=4, workers=2)
DenseNet3 (
  (conv1): Conv2d(3, 48, kernel_size=(3, 3), stride=(1, 1), padding=(1, 1), bias=False)
  (block1): DenseBlock (
    (layer): Sequential (
      (0): BottleneckBlock (
        (bn1): BatchNorm2d(48, eps=1e-05, momentum=0.1, affine=True)
        (relu): ReLU (inplace)
        (conv1): Conv2d(48, 96, kernel_size=(1, 1), stride=(1, 1), bias=False)
        (bn2): BatchNorm2d(96, eps=1e-05, momentum=0.1, affine=True)
        (conv2): Conv2d(96, 24, kernel_size=(3, 3), stride=(1, 1), padding=(1, 1), bias=False)
      )
      (1): BottleneckBlock (
        (bn1): BatchNorm2d(72, eps=1e-05, momentum=0.1, affine=True)
        (relu): ReLU (inplace)
        (conv1): Conv2d(72, 96, kernel_size=(1, 1), stride=(1, 1), bias=False)
        (bn2): BatchNorm2d(96, eps=1e-05, momentum=0.1, affine=True)
        (conv2): Conv2d(96, 24, kernel_size=(3, 3), stride=(1, 1), padding=(1, 1), bias=False)
      )
      (2): BottleneckBlock (
        (bn1): BatchNorm2d(96, eps=1e-05, momentum=0.1, affine=True)
        (relu): ReLU (inplace)
        (conv1): Conv2d(96, 96, kernel_size=(1, 1), stride=(1, 1), bias=False)
        (bn2): BatchNorm2d(96, eps=1e-05, momentum=0.1, affine=True)
        (conv2): Conv2d(96, 24, kernel_size=(3, 3), stride=(1, 1), padding=(1, 1), bias=False)
      )
      (3): BottleneckBlock (
        (bn1): BatchNorm2d(120, eps=1e-05, momentum=0.1, affine=True)
        (relu): ReLU (inplace)
        (conv1): Conv2d(120, 96, kernel_size=(1, 1), stride=(1, 1), bias=False)
        (bn2): BatchNorm2d(96, eps=1e-05, momentum=0.1, affine=True)
        (conv2): Conv2d(96, 24, kernel_size=(3, 3), stride=(1, 1), padding=(1, 1), bias=False)
      )
      (4): BottleneckBlock (
        (bn1): BatchNorm2d(144, eps=1e-05, momentum=0.1, affine=True)
        (relu): ReLU (inplace)
        (conv1): Conv2d(144, 96, kernel_size=(1, 1), stride=(1, 1), bias=False)
        (bn2): BatchNorm2d(96, eps=1e-05, momentum=0.1, affine=True)
        (conv2): Conv2d(96, 24, kernel_size=(3, 3), stride=(1, 1), padding=(1, 1), bias=False)
      )
      (5): BottleneckBlock (
        (bn1): BatchNorm2d(168, eps=1e-05, momentum=0.1, affine=True)
        (relu): ReLU (inplace)
        (conv1): Conv2d(168, 96, kernel_size=(1, 1), stride=(1, 1), bias=False)
        (bn2): BatchNorm2d(96, eps=1e-05, momentum=0.1, affine=True)
        (conv2): Conv2d(96, 24, kernel_size=(3, 3), stride=(1, 1), padding=(1, 1), bias=False)
      )
    )
  )
  (trans1): TransitionBlock (
    (bn1): BatchNorm2d(192, eps=1e-05, momentum=0.1, affine=True)
    (relu): ReLU (inplace)
    (conv1): Conv2d(192, 96, kernel_size=(1, 1), stride=(1, 1), bias=False)
  )
  (block2): DenseBlock (
    (layer): Sequential (
      (0): BottleneckBlock (
        (bn1): BatchNorm2d(96, eps=1e-05, momentum=0.1, affine=True)
        (relu): ReLU (inplace)
        (conv1): Conv2d(96, 96, kernel_size=(1, 1), stride=(1, 1), bias=False)
        (bn2): BatchNorm2d(96, eps=1e-05, momentum=0.1, affine=True)
        (conv2): Conv2d(96, 24, kernel_size=(3, 3), stride=(1, 1), padding=(1, 1), bias=False)
      )
      (1): BottleneckBlock (
        (bn1): BatchNorm2d(120, eps=1e-05, momentum=0.1, affine=True)
        (relu): ReLU (inplace)
        (conv1): Conv2d(120, 96, kernel_size=(1, 1), stride=(1, 1), bias=False)
        (bn2): BatchNorm2d(96, eps=1e-05, momentum=0.1, affine=True)
        (conv2): Conv2d(96, 24, kernel_size=(3, 3), stride=(1, 1), padding=(1, 1), bias=False)
      )
      (2): BottleneckBlock (
        (bn1): BatchNorm2d(144, eps=1e-05, momentum=0.1, affine=True)
        (relu): ReLU (inplace)
        (conv1): Conv2d(144, 96, kernel_size=(1, 1), stride=(1, 1), bias=False)
        (bn2): BatchNorm2d(96, eps=1e-05, momentum=0.1, affine=True)
        (conv2): Conv2d(96, 24, kernel_size=(3, 3), stride=(1, 1), padding=(1, 1), bias=False)
      )
      (3): BottleneckBlock (
        (bn1): BatchNorm2d(168, eps=1e-05, momentum=0.1, affine=True)
        (relu): ReLU (inplace)
        (conv1): Conv2d(168, 96, kernel_size=(1, 1), stride=(1, 1), bias=False)
        (bn2): BatchNorm2d(96, eps=1e-05, momentum=0.1, affine=True)
        (conv2): Conv2d(96, 24, kernel_size=(3, 3), stride=(1, 1), padding=(1, 1), bias=False)
      )
      (4): BottleneckBlock (
        (bn1): BatchNorm2d(192, eps=1e-05, momentum=0.1, affine=True)
        (relu): ReLU (inplace)
        (conv1): Conv2d(192, 96, kernel_size=(1, 1), stride=(1, 1), bias=False)
        (bn2): BatchNorm2d(96, eps=1e-05, momentum=0.1, affine=True)
        (conv2): Conv2d(96, 24, kernel_size=(3, 3), stride=(1, 1), padding=(1, 1), bias=False)
      )
      (5): BottleneckBlock (
        (bn1): BatchNorm2d(216, eps=1e-05, momentum=0.1, affine=True)
        (relu): ReLU (inplace)
        (conv1): Conv2d(216, 96, kernel_size=(1, 1), stride=(1, 1), bias=False)
        (bn2): BatchNorm2d(96, eps=1e-05, momentum=0.1, affine=True)
        (conv2): Conv2d(96, 24, kernel_size=(3, 3), stride=(1, 1), padding=(1, 1), bias=False)
      )
    )
  )
  (trans2): TransitionBlock (
    (bn1): BatchNorm2d(240, eps=1e-05, momentum=0.1, affine=True)
    (relu): ReLU (inplace)
    (conv1): Conv2d(240, 120, kernel_size=(1, 1), stride=(1, 1), bias=False)
  )
  (block3): DenseBlock (
    (layer): Sequential (
      (0): BottleneckBlock (
        (bn1): BatchNorm2d(120, eps=1e-05, momentum=0.1, affine=True)
        (relu): ReLU (inplace)
        (conv1): Conv2d(120, 96, kernel_size=(1, 1), stride=(1, 1), bias=False)
        (bn2): BatchNorm2d(96, eps=1e-05, momentum=0.1, affine=True)
        (conv2): Conv2d(96, 24, kernel_size=(3, 3), stride=(1, 1), padding=(1, 1), bias=False)
      )
      (1): BottleneckBlock (
        (bn1): BatchNorm2d(144, eps=1e-05, momentum=0.1, affine=True)
        (relu): ReLU (inplace)
        (conv1): Conv2d(144, 96, kernel_size=(1, 1), stride=(1, 1), bias=False)
        (bn2): BatchNorm2d(96, eps=1e-05, momentum=0.1, affine=True)
        (conv2): Conv2d(96, 24, kernel_size=(3, 3), stride=(1, 1), padding=(1, 1), bias=False)
      )
      (2): BottleneckBlock (
        (bn1): BatchNorm2d(168, eps=1e-05, momentum=0.1, affine=True)
        (relu): ReLU (inplace)
        (conv1): Conv2d(168, 96, kernel_size=(1, 1), stride=(1, 1), bias=False)
        (bn2): BatchNorm2d(96, eps=1e-05, momentum=0.1, affine=True)
        (conv2): Conv2d(96, 24, kernel_size=(3, 3), stride=(1, 1), padding=(1, 1), bias=False)
      )
      (3): BottleneckBlock (
        (bn1): BatchNorm2d(192, eps=1e-05, momentum=0.1, affine=True)
        (relu): ReLU (inplace)
        (conv1): Conv2d(192, 96, kernel_size=(1, 1), stride=(1, 1), bias=False)
        (bn2): BatchNorm2d(96, eps=1e-05, momentum=0.1, affine=True)
        (conv2): Conv2d(96, 24, kernel_size=(3, 3), stride=(1, 1), padding=(1, 1), bias=False)
      )
      (4): BottleneckBlock (
        (bn1): BatchNorm2d(216, eps=1e-05, momentum=0.1, affine=True)
        (relu): ReLU (inplace)
        (conv1): Conv2d(216, 96, kernel_size=(1, 1), stride=(1, 1), bias=False)
        (bn2): BatchNorm2d(96, eps=1e-05, momentum=0.1, affine=True)
        (conv2): Conv2d(96, 24, kernel_size=(3, 3), stride=(1, 1), padding=(1, 1), bias=False)
      )
      (5): BottleneckBlock (
        (bn1): BatchNorm2d(240, eps=1e-05, momentum=0.1, affine=True)
        (relu): ReLU (inplace)
        (conv1): Conv2d(240, 96, kernel_size=(1, 1), stride=(1, 1), bias=False)
        (bn2): BatchNorm2d(96, eps=1e-05, momentum=0.1, affine=True)
        (conv2): Conv2d(96, 24, kernel_size=(3, 3), stride=(1, 1), padding=(1, 1), bias=False)
      )
    )
  )
  (bn1): BatchNorm2d(264, eps=1e-05, momentum=0.1, affine=True)
  (relu): ReLU (inplace)
  (fc): Linear (264 -> 10)
)
Files already downloaded and verified
Starting epoch number: 0 Learning rate: 0.1
Train: [0]	Time 40.374	Data 0.263	Loss 1.382	Prec@1 49.3620	Prec@5 92.3200	
Val: [0]	Time 2.518	Data 0.292	Loss 1.425	Prec@1 54.9700	Prec@5 95.8900	
Best Prec@1: [54.970]	
Starting epoch number: 1 Learning rate: 0.1
Train: [1]	Time 39.125	Data 0.266	Loss 0.882	Prec@1 68.9540	Prec@5 97.5040	
…
