…
alse, expandConfig=None, expandSize=2, from_modelzoo=False, growth=24, layers=100, learningratescheduler='cifarschedular', logdir='../logs/densenetbc_cifar100_100_24', lr=0.1, manualSeed=123, maxlr=0.1, minlr=0.0005, model_def='densenet_cifar', momentum=0.9, name='densenetbc_cifar100_100_24', nclasses=100, nesterov=True, ngpus=1, optimType='sgd', pretrained=False, pretrained_file='', printfreq=200, reduce=0.5, resume='', start_epoch=0, store='', tenCrop=False, tensorboard=True, testOnly=False, verbose=False, weightDecay=0.0001, weight_init=False, widen_factor=4, workers=2)
DenseNet3 (
  (conv1): Conv2d(3, 48, kernel_size=(3, 3), stride=(1, 1), padding=(1, 1), bias=False)
  (block1): DenseBlock (
    (layer): Sequential (
      (0): BottleneckBlock (
        (bn1): BatchNorm2d(48, eps=1e-05, momentum=0.1, affine=True)
        (relu): ReLU (inplace)
        (conv1): Conv2d(48, 96, kernel_size=(1, 1), stride=(1, 1), bias=False)
        (bn2): BatchNorm2d(96, eps=1e-05, momentum=0.1, affine=True)
        (conv2): Conv2d(96, 24, kernel_size=(3, 3), stride=(1, 1), padding=(1, 1), bias=False)
      )
      (1): BottleneckBlock (
        (bn1): BatchNorm2d(72, eps=1e-05, momentum=0.1, affine=True)
        (relu): ReLU (inplace)
        (conv1): Conv2d(72, 96, kernel_size=(1, 1), stride=(1, 1), bias=False)
        (bn2): BatchNorm2d(96, eps=1e-05, momentum=0.1, affine=True)
        (conv2): Conv2d(96, 24, kernel_size=(3, 3), stride=(1, 1), padding=(1, 1), bias=False)
      )
      (2): BottleneckBlock (
        (bn1): BatchNorm2d(96, eps=1e-05, momentum=0.1, affine=True)
        (relu): ReLU (inplace)
        (conv1): Conv2d(96, 96, kernel_size=(1, 1), stride=(1, 1), bias=False)
        (bn2): BatchNorm2d(96, eps=1e-05, momentum=0.1, affine=True)
        (conv2): Conv2d(96, 24, kernel_size=(3, 3), stride=(1, 1), padding=(1, 1), bias=False)
      )
      (3): BottleneckBlock (
        (bn1): BatchNorm2d(120, eps=1e-05, momentum=0.1, affine=True)
        (relu): ReLU (inplace)
        (conv1): Conv2d(120, 96, kernel_size=(1, 1), stride=(1, 1), bias=False)
        (bn2): BatchNorm2d(96, eps=1e-05, momentum=0.1, affine=True)
        (conv2): Conv2d(96, 24, kernel_size=(3, 3), stride=(1, 1), padding=(1, 1), bias=False)
      )
      (4): BottleneckBlock (
        (bn1): BatchNorm2d(144, eps=1e-05, momentum=0.1, affine=True)
        (relu): ReLU (inplace)
        (conv1): Conv2d(144, 96, kernel_size=(1, 1), stride=(1, 1), bias=False)
        (bn2): BatchNorm2d(96, eps=1e-05, momentum=0.1, affine=True)
        (conv2): Conv2d(96, 24, kernel_size=(3, 3), stride=(1, 1), padding=(1, 1), bias=False)
      )
      (5): BottleneckBlock (
        (bn1): BatchNorm2d(168, eps=1e-05, momentum=0.1, affine=True)
        (relu): ReLU (inplace)
        (conv1): Conv2d(168, 96, kernel_size=(1, 1), stride=(1, 1), bias=False)
        (bn2): BatchNorm2d(96, eps=1e-05, momentum=0.1, affine=True)
        (conv2): Conv2d(96, 24, kernel_size=(3, 3), stride=(1, 1), padding=(1, 1), bias=False)
      )
      (6): BottleneckBlock (
        (bn1): BatchNorm2d(192, eps=1e-05, momentum=0.1, affine=True)
        (relu): ReLU (inplace)
        (conv1): Conv2d(192, 96, kernel_size=(1, 1), stride=(1, 1), bias=False)
        (bn2): BatchNorm2d(96, eps=1e-05, momentum=0.1, affine=True)
        (conv2): Conv2d(96, 24, kernel_size=(3, 3), stride=(1, 1), padding=(1, 1), bias=False)
      )
      (7): BottleneckBlock (
        (bn1): BatchNorm2d(216, eps=1e-05, momentum=0.1, affine=True)
        (relu): ReLU (inplace)
        (conv1): Conv2d(216, 96, kernel_size=(1, 1), stride=(1, 1), bias=False)
        (bn2): BatchNorm2d(96, eps=1e-05, momentum=0.1, affine=True)
        (conv2): Conv2d(96, 24, kernel_size=(3, 3), stride=(1, 1), padding=(1, 1), bias=False)
      )
      (8): BottleneckBlock (
        (bn1): BatchNorm2d(240, eps=1e-05, momentum=0.1, affine=True)
        (relu): ReLU (inplace)
        (conv1): Conv2d(240, 96, kernel_size=(1, 1), stride=(1, 1), bias=False)
        (bn2): BatchNorm2d(96, eps=1e-05, momentum=0.1, affine=True)
        (conv2): Conv2d(96, 24, kernel_size=(3, 3), stride=(1, 1), padding=(1, 1), bias=False)
      )
      (9): BottleneckBlock (
        (bn1): BatchNorm2d(264, eps=1e-05, momentum=0.1, affine=True)
        (relu): ReLU (inplace)
        (conv1): Conv2d(264, 96, kernel_size=(1, 1), stride=(1, 1), bias=False)
        (bn2): BatchNorm2d(96, eps=1e-05, momentum=0.1, affine=True)
        (conv2): Conv2d(96, 24, kernel_size=(3, 3), stride=(1, 1), padding=(1, 1), bias=False)
      )
      (10): BottleneckBlock (
        (bn1): BatchNorm2d(288, eps=1e-05, momentum=0.1, affine=True)
        (relu): ReLU (inplace)
        (conv1): Conv2d(288, 96, kernel_size=(1, 1), stride=(1, 1), bias=False)
        (bn2): BatchNorm2d(96, eps=1e-05, momentum=0.1, affine=True)
        (conv2): Conv2d(96, 24, kernel_size=(3, 3), stride=(1, 1), padding=(1, 1), bias=False)
      )
      (11): BottleneckBlock (
        (bn1): BatchNorm2d(312, eps=1e-05, momentum=0.1, affine=True)
        (relu): ReLU (inplace)
        (conv1): Conv2d(312, 96, kernel_size=(1, 1), stride=(1, 1), bias=False)
        (bn2): BatchNorm2d(96, eps=1e-05, momentum=0.1, affine=True)
        (conv2): Conv2d(96, 24, kernel_size=(3, 3), stride=(1, 1), padding=(1, 1), bias=False)
      )
      (12): BottleneckBlock (
        (bn1): BatchNorm2d(336, eps=1e-05, momentum=0.1, affine=True)
        (relu): ReLU (inplace)
        (conv1): Conv2d(336, 96, kernel_size=(1, 1), stride=(1, 1), bias=False)
        (bn2): BatchNorm2d(96, eps=1e-05, momentum=0.1, affine=True)
        (conv2): Conv2d(96, 24, kernel_size=(3, 3), stride=(1, 1), padding=(1, 1), bias=False)
      )
      (13): BottleneckBlock (
        (bn1): BatchNorm2d(360, eps=1e-05, momentum=0.1, affine=True)
        (relu): ReLU (inplace)
        (conv1): Conv2d(360, 96, kernel_size=(1, 1), stride=(1, 1), bias=False)
        (bn2): BatchNorm2d(96, eps=1e-05, momentum=0.1, affine=True)
        (conv2): Conv2d(96, 24, kernel_size=(3, 3), stride=(1, 1), padding=(1, 1), bias=False)
      )
      (14): BottleneckBlock (
        (bn1): BatchNorm2d(384, eps=1e-05, momentum=0.1, affine=True)
        (relu): ReLU (inplace)
        (conv1): Conv2d(384, 96, kernel_size=(1, 1), stride=(1, 1), bias=False)
        (bn2): BatchNorm2d(96, eps=1e-05, momentum=0.1, affine=True)
        (conv2): Conv2d(96, 24, kernel_size=(3, 3), stride=(1, 1), padding=(1, 1), bias=False)
      )
      (15): BottleneckBlock (
        (bn1): BatchNorm2d(408, eps=1e-05, momentum=0.1, affine=True)
        (relu): ReLU (inplace)
        (conv1): Conv2d(408, 96, kernel_size=(1, 1), stride=(1, 1), bias=False)
        (bn2): BatchNorm2d(96, eps=1e-05, momentum=0.1, affine=True)
        (conv2): Conv2d(96, 24, kernel_size=(3, 3), stride=(1, 1), padding=(1, 1), bias=False)
      )
    )
  )
  (trans1): TransitionBlock (
    (bn1): BatchNorm2d(432, eps=1e-05, momentum=0.1, affine=True)
    (relu): ReLU (inplace)
    (conv1): Conv2d(432, 216, kernel_size=(1, 1), stride=(1, 1), bias=False)
  )
  (block2): DenseBlock (
    (layer): Sequential (
      (0): BottleneckBlock (
        (bn1): BatchNorm2d(216, eps=1e-05, momentum=0.1, affine=True)
        (relu): ReLU (inplace)
        (conv1): Conv2d(216, 96, kernel_size=(1, 1), stride=(1, 1), bias=False)
        (bn2): BatchNorm2d(96, eps=1e-05, momentum=0.1, affine=True)
        (conv2): Conv2d(96, 24, kernel_size=(3, 3), stride=(1, 1), padding=(1, 1), bias=False)
      )
      (1): BottleneckBlock (
        (bn1): BatchNorm2d(240, eps=1e-05, momentum=0.1, affine=True)
        (relu): ReLU (inplace)
        (conv1): Conv2d(240, 96, kernel_size=(1, 1), stride=(1, 1), bias=False)
        (bn2): BatchNorm2d(96, eps=1e-05, momentum=0.1, affine=True)
        (conv2): Conv2d(96, 24, kernel_size=(3, 3), stride=(1, 1), padding=(1, 1), bias=False)
      )
      (2): BottleneckBlock (
        (bn1): BatchNorm2d(264, eps=1e-05, momentum=0.1, affine=True)
        (relu): ReLU (inplace)
        (conv1): Conv2d(264, 96, kernel_size=(1, 1), stride=(1, 1), bias=False)
        (bn2): BatchNorm2d(96, eps=1e-05, momentum=0.1, affine=True)
        (conv2): Conv2d(96, 24, kernel_size=(3, 3), stride=(1, 1), padding=(1, 1), bias=False)
      )
      (3): BottleneckBlock (
        (bn1): BatchNorm2d(288, eps=1e-05, momentum=0.1, affine=True)
        (relu): ReLU (inplace)
        (conv1): Conv2d(288, 96, kernel_size=(1, 1), stride=(1, 1), bias=False)
        (bn2): BatchNorm2d(96, eps=1e-05, momentum=0.1, affine=True)
        (conv2): Conv2d(96, 24, kernel_size=(3, 3), stride=(1, 1), padding=(1, 1), bias=False)
      )
      (4): BottleneckBlock (
        (bn1): BatchNorm2d(312, eps=1e-05, momentum=0.1, affine=True)
        (relu): ReLU (inplace)
        (conv1): Conv2d(312, 96, kernel_size=(1, 1), stride=(1, 1), bias=False)
        (bn2): BatchNorm2d(96, eps=1e-05, momentum=0.1, affine=True)
        (conv2): Conv2d(96, 24, kernel_size=(3, 3), stride=(1, 1), padding=(1, 1), bias=False)
      )
      (5): BottleneckBlock (
        (bn1): BatchNorm2d(336, eps=1e-05, momentum=0.1, affine=True)
        (relu): ReLU (inplace)
        (conv1): Conv2d(336, 96, kernel_size=(1, 1), stride=(1, 1), bias=False)
        (bn2): BatchNorm2d(96, eps=1e-05, momentum=0.1, affine=True)
        (conv2): Conv2d(96, 24, kernel_size=(3, 3), stride=(1, 1), padding=(1, 1), bias=False)
      )
      (6): BottleneckBlock (
        (bn1): BatchNorm2d(360, eps=1e-05, momentum=0.1, affine=True)
        (relu): ReLU (inplace)
        (conv1): Conv2d(360, 96, kernel_size=(1, 1), stride=(1, 1), bias=False)
        (bn2): BatchNorm2d(96, eps=1e-05, momentum=0.1, affine=True)
        (conv2): Conv2d(96, 24, kernel_size=(3, 3), stride=(1, 1), padding=(1, 1), bias=False)
      )
      (7): BottleneckBlock (
        (bn1): BatchNorm2d(384, eps=1e-05, momentum=0.1, affine=True)
        (relu): ReLU (inplace)
        (conv1): Conv2d(384, 96, kernel_size=(1, 1), stride=(1, 1), bias=False)
        (bn2): BatchNorm2d(96, eps=1e-05, momentum=0.1, affine=True)
        (conv2): Conv2d(96, 24, kernel_size=(3, 3), stride=(1, 1), padding=(1, 1), bias=False)
      )
      (8): BottleneckBlock (
        (bn1): BatchNorm2d(408, eps=1e-05, momentum=0.1, affine=True)
        (relu): ReLU (inplace)
        (conv1): Conv2d(408, 96, kernel_size=(1, 1), stride=(1, 1), bias=False)
        (bn2): BatchNorm2d(96, eps=1e-05, momentum=0.1, affine=True)
        (conv2): Conv2d(96, 24, kernel_size=(3, 3), stride=(1, 1), padding=(1, 1), bias=False)
      )
      (9): BottleneckBlock (
        (bn1): BatchNorm2d(432, eps=1e-05, momentum=0.1, affine=True)
        (relu): ReLU (inplace)
        (conv1): Conv2d(432, 96, kernel_size=(1, 1), stride=(1, 1), bias=False)
        (bn2): BatchNorm2d(96, eps=1e-05, momentum=0.1, affine=True)
        (conv2): Conv2d(96, 24, kernel_size=(3, 3), stride=(1, 1), padding=(1, 1), bias=False)
      )
      (10): BottleneckBlock (
        (bn1): BatchNorm2d(456, eps=1e-05, momentum=0.1, affine=True)
        (relu): ReLU (inplace)
        (conv1): Conv2d(456, 96, kernel_size=(1, 1), stride=(1, 1), bias=False)
        (bn2): BatchNorm2d(96, eps=1e-05, momentum=0.1, affine=True)
        (conv2): Conv2d(96, 24, kernel_size=(3, 3), stride=(1, 1), padding=(1, 1), bias=False)
      )
      (11): BottleneckBlock (
        (bn1): BatchNorm2d(480, eps=1e-05, momentum=0.1, affine=True)
        (relu): ReLU (inplace)
        (conv1): Conv2d(480, 96, kernel_size=(1, 1), stride=(1, 1), bias=False)
        (bn2): BatchNorm2d(96, eps=1e-05, momentum=0.1, affine=True)
        (conv2): Conv2d(96, 24, kernel_size=(3, 3), stride=(1, 1), padding=(1, 1), bias=False)
      )
      (12): BottleneckBlock (
        (bn1): BatchNorm2d(504, eps=1e-05, momentum=0.1, affine=True)
        (relu): ReLU (inplace)
        (conv1): Conv2d(504, 96, kernel_size=(1, 1), stride=(1, 1), bias=False)
        (bn2): BatchNorm2d(96, eps=1e-05, momentum=0.1, affine=True)
        (conv2): Conv2d(96, 24, kernel_size=(3, 3), stride=(1, 1), padding=(1, 1), bias=False)
      )
      (13): BottleneckBlock (
        (bn1): BatchNorm2d(528, eps=1e-05, momentum=0.1, affine=True)
        (relu): ReLU (inplace)
        (conv1): Conv2d(528, 96, kernel_size=(1, 1), stride=(1, 1), bias=False)
        (bn2): BatchNorm2d(96, eps=1e-05, momentum=0.1, affine=True)
        (conv2): Conv2d(96, 24, kernel_size=(3, 3), stride=(1, 1), padding=(1, 1), bias=False)
      )
      (14): BottleneckBlock (
        (bn1): BatchNorm2d(552, eps=1e-05, momentum=0.1, affine=True)
        (relu): ReLU (inplace)
        (conv1): Conv2d(552, 96, kernel_size=(1, 1), stride=(1, 1), bias=False)
        (bn2): BatchNorm2d(96, eps=1e-05, momentum=0.1, affine=True)
        (conv2): Conv2d(96, 24, kernel_size=(3, 3), stride=(1, 1), padding=(1, 1), bias=False)
      )
      (15): BottleneckBlock (
        (bn1): BatchNorm2d(576, eps=1e-05, momentum=0.1, affine=True)
        (relu): ReLU (inplace)
        (conv1): Conv2d(576, 96, kernel_size=(1, 1), stride=(1, 1), bias=False)
        (bn2): BatchNorm2d(96, eps=1e-05, momentum=0.1, affine=True)
        (conv2): Conv2d(96, 24, kernel_size=(3, 3), stride=(1, 1), padding=(1, 1), bias=False)
      )
    )
  )
  (trans2): TransitionBlock (
    (bn1): BatchNorm2d(600, eps=1e-05, momentum=0.1, affine=True)
    (relu): ReLU (inplace)
    (conv1): Conv2d(600, 300, kernel_size=(1, 1), stride=(1, 1), bias=False)
  )
  (block3): DenseBlock (
    (layer): Sequential (
      (0): BottleneckBlock (
        (bn1): BatchNorm2d(300, eps=1e-05, momentum=0.1, affine=True)
        (relu): ReLU (inplace)
        (conv1): Conv2d(300, 96, kernel_size=(1, 1), stride=(1, 1), bias=False)
        (bn2): BatchNorm2d(96, eps=1e-05, momentum=0.1, affine=True)
        (conv2): Conv2d(96, 24, kernel_size=(3, 3), stride=(1, 1), padding=(1, 1), bias=False)
      )
      (1): BottleneckBlock (
        (bn1): BatchNorm2d(324, eps=1e-05, momentum=0.1, affine=True)
        (relu): ReLU (inplace)
        (conv1): Conv2d(324, 96, kernel_size=(1, 1), stride=(1, 1), bias=False)
        (bn2): BatchNorm2d(96, eps=1e-05, momentum=0.1, affine=True)
        (conv2): Conv2d(96, 24, kernel_size=(3, 3), stride=(1, 1), padding=(1, 1), bias=False)
      )
      (2): BottleneckBlock (
        (bn1): BatchNorm2d(348, eps=1e-05, momentum=0.1, affine=True)
        (relu): ReLU (inplace)
        (conv1): Conv2d(348, 96, kernel_size=(1, 1), stride=(1, 1), bias=False)
        (bn2): BatchNorm2d(96, eps=1e-05, momentum=0.1, affine=True)
        (conv2): Conv2d(96, 24, kernel_size=(3, 3), stride=(1, 1), padding=(1, 1), bias=False)
      )
      (3): BottleneckBlock (
        (bn1): BatchNorm2d(372, eps=1e-05, momentum=0.1, affine=True)
        (relu): ReLU (inplace)
        (conv1): Conv2d(372, 96, kernel_size=(1, 1), stride=(1, 1), bias=False)
        (bn2): BatchNorm2d(96, eps=1e-05, momentum=0.1, affine=True)
        (conv2): Conv2d(96, 24, kernel_size=(3, 3), stride=(1, 1), padding=(1, 1), bias=False)
      )
      (4): BottleneckBlock (
        (bn1): BatchNorm2d(396, eps=1e-05, momentum=0.1, affine=True)
        (relu): ReLU (inplace)
        (conv1): Conv2d(396, 96, kernel_size=(1, 1), stride=(1, 1), bias=False)
        (bn2): BatchNorm2d(96, eps=1e-05, momentum=0.1, affine=True)
        (conv2): Conv2d(96, 24, kernel_size=(3, 3), stride=(1, 1), padding=(1, 1), bias=False)
      )
      (5): BottleneckBlock (
        (bn1): BatchNorm2d(420, eps=1e-05, momentum=0.1, affine=True)
        (relu): ReLU (inplace)
        (conv1): Conv2d(420, 96, kernel_size=(1, 1), stride=(1, 1), bias=False)
        (bn2): BatchNorm2d(96, eps=1e-05, momentum=0.1, affine=True)
        (conv2): Conv2d(96, 24, kernel_size=(3, 3), stride=(1, 1), padding=(1, 1), bias=False)
      )
      (6): BottleneckBlock (
        (bn1): BatchNorm2d(444, eps=1e-05, momentum=0.1, affine=True)
        (relu): ReLU (inplace)
        (conv1): Conv2d(444, 96, kernel_size=(1, 1), stride=(1, 1), bias=False)
        (bn2): BatchNorm2d(96, eps=1e-05, momentum=0.1, affine=True)
        (conv2): Conv2d(96, 24, kernel_size=(3, 3), stride=(1, 1), padding=(1, 1), bias=False)
      )
      (7): BottleneckBlock (
        (bn1): BatchNorm2d(468, eps=1e-05, momentum=0.1, affine=True)
        (relu): ReLU (inplace)
        (conv1): Conv2d(468, 96, kernel_size=(1, 1), stride=(1, 1), bias=False)
        (bn2): BatchNorm2d(96, eps=1e-05, momentum=0.1, affine=True)
        (conv2): Conv2d(96, 24, kernel_size=(3, 3), stride=(1, 1), padding=(1, 1), bias=False)
      )
      (8): BottleneckBlock (
        (bn1): BatchNorm2d(492, eps=1e-05, momentum=0.1, affine=True)
        (relu): ReLU (inplace)
        (conv1): Conv2d(492, 96, kernel_size=(1, 1), stride=(1, 1), bias=False)
        (bn2): BatchNorm2d(96, eps=1e-05, momentum=0.1, affine=True)
        (conv2): Conv2d(96, 24, kernel_size=(3, 3), stride=(1, 1), padding=(1, 1), bias=False)
      )
      (9): BottleneckBlock (
        (bn1): BatchNorm2d(516, eps=1e-05, momentum=0.1, affine=True)
        (relu): ReLU (inplace)
        (conv1): Conv2d(516, 96, kernel_size=(1, 1), stride=(1, 1), bias=False)
        (bn2): BatchNorm2d(96, eps=1e-05, momentum=0.1, affine=True)
        (conv2): Conv2d(96, 24, kernel_size=(3, 3), stride=(1, 1), padding=(1, 1), bias=False)
      )
      (10): BottleneckBlock (
        (bn1): BatchNorm2d(540, eps=1e-05, momentum=0.1, affine=True)
        (relu): ReLU (inplace)
        (conv1): Conv2d(540, 96, kernel_size=(1, 1), stride=(1, 1), bias=False)
        (bn2): BatchNorm2d(96, eps=1e-05, momentum=0.1, affine=True)
        (conv2): Conv2d(96, 24, kernel_size=(3, 3), stride=(1, 1), padding=(1, 1), bias=False)
      )
      (11): BottleneckBlock (
        (bn1): BatchNorm2d(564, eps=1e-05, momentum=0.1, affine=True)
        (relu): ReLU (inplace)
        (conv1): Conv2d(564, 96, kernel_size=(1, 1), stride=(1, 1), bias=False)
        (bn2): BatchNorm2d(96, eps=1e-05, momentum=0.1, affine=True)
        (conv2): Conv2d(96, 24, kernel_size=(3, 3), stride=(1, 1), padding=(1, 1), bias=False)
      )
      (12): BottleneckBlock (
        (bn1): BatchNorm2d(588, eps=1e-05, momentum=0.1, affine=True)
        (relu): ReLU (inplace)
        (conv1): Conv2d(588, 96, kernel_size=(1, 1), stride=(1, 1), bias=False)
        (bn2): BatchNorm2d(96, eps=1e-05, momentum=0.1, affine=True)
        (conv2): Conv2d(96, 24, kernel_size=(3, 3), stride=(1, 1), padding=(1, 1), bias=False)
      )
      (13): BottleneckBlock (
        (bn1): BatchNorm2d(612, eps=1e-05, momentum=0.1, affine=True)
        (relu): ReLU (inplace)
        (conv1): Conv2d(612, 96, kernel_size=(1, 1), stride=(1, 1), bias=False)
        (bn2): BatchNorm2d(96, eps=1e-05, momentum=0.1, affine=True)
        (conv2): Conv2d(96, 24, kernel_size=(3, 3), stride=(1, 1), padding=(1, 1), bias=False)
      )
      (14): BottleneckBlock (
        (bn1): BatchNorm2d(636, eps=1e-05, momentum=0.1, affine=True)
        (relu): ReLU (inplace)
        (conv1): Conv2d(636, 96, kernel_size=(1, 1), stride=(1, 1), bias=False)
        (bn2): BatchNorm2d(96, eps=1e-05, momentum=0.1, affine=True)
        (conv2): Conv2d(96, 24, kernel_size=(3, 3), stride=(1, 1), padding=(1, 1), bias=False)
      )
      (15): BottleneckBlock (
        (bn1): BatchNorm2d(660, eps=1e-05, momentum=0.1, affine=True)
        (relu): ReLU (inplace)
        (conv1): Conv2d(660, 96, kernel_size=(1, 1), stride=(1, 1), bias=False)
        (bn2): BatchNorm2d(96, eps=1e-05, momentum=0.1, affine=True)
        (conv2): Conv2d(96, 24, kernel_size=(3, 3), stride=(1, 1), padding=(1, 1), bias=False)
      )
    )
  )
  (bn1): BatchNorm2d(684, eps=1e-05, momentum=0.1, affine=True)
  (relu): ReLU (inplace)
  (fc): Linear (684 -> 100)
)
Files already downloaded and verified
Starting epoch number: 0 Learning rate: 0.1
Train: [0]	Time 160.992	Data 0.393	Loss 3.770	Prec@1 12.3860	Prec@5 34.5140	
Val: [0]	Time 9.338	Data 0.092	Loss 3.345	Prec@1 19.6200	Prec@5 47.1200	
Best Prec@1: [19.620]	
Starting epoch number: 1 Learning rate: 0.1
Train: [1]	Time 156.612	Data 0.309	Loss 2.845	Prec@1 27.6640	Prec@5 59.0980	
…
