…
e=False, expandConfig=None, expandSize=2, from_modelzoo=False, growth=36, layers=40, learningratescheduler='cifarschedular', logdir='../logs/densenetbc_cifar100_40_36', lr=0.1, manualSeed=123, maxlr=0.1, minlr=0.0005, model_def='densenet_cifar', momentum=0.9, name='densenetbc_cifar100_40_36', nclasses=100, nesterov=True, ngpus=1, optimType='sgd', pretrained=False, pretrained_file='', printfreq=200, reduce=0.5, resume='', start_epoch=0, store='', tenCrop=False, tensorboard=True, testOnly=False, verbose=False, weightDecay=0.0001, weight_init=False, widen_factor=4, workers=2)
DenseNet3 (
  (conv1): Conv2d(3, 72, kernel_size=(3, 3), stride=(1, 1), padding=(1, 1), bias=False)
  (block1): DenseBlock (
    (layer): Sequential (
      (0): BottleneckBlock (
        (bn1): BatchNorm2d(72, eps=1e-05, momentum=0.1, affine=True)
        (relu): ReLU (inplace)
        (conv1): Conv2d(72, 144, kernel_size=(1, 1), stride=(1, 1), bias=False)
        (bn2): BatchNorm2d(144, eps=1e-05, momentum=0.1, affine=True)
        (conv2): Conv2d(144, 36, kernel_size=(3, 3), stride=(1, 1), padding=(1, 1), bias=False)
      )
      (1): BottleneckBlock (
        (bn1): BatchNorm2d(108, eps=1e-05, momentum=0.1, affine=True)
        (relu): ReLU (inplace)
        (conv1): Conv2d(108, 144, kernel_size=(1, 1), stride=(1, 1), bias=False)
        (bn2): BatchNorm2d(144, eps=1e-05, momentum=0.1, affine=True)
        (conv2): Conv2d(144, 36, kernel_size=(3, 3), stride=(1, 1), padding=(1, 1), bias=False)
      )
      (2): BottleneckBlock (
        (bn1): BatchNorm2d(144, eps=1e-05, momentum=0.1, affine=True)
        (relu): ReLU (inplace)
        (conv1): Conv2d(144, 144, kernel_size=(1, 1), stride=(1, 1), bias=False)
        (bn2): BatchNorm2d(144, eps=1e-05, momentum=0.1, affine=True)
        (conv2): Conv2d(144, 36, kernel_size=(3, 3), stride=(1, 1), padding=(1, 1), bias=False)
      )
      (3): BottleneckBlock (
        (bn1): BatchNorm2d(180, eps=1e-05, momentum=0.1, affine=True)
        (relu): ReLU (inplace)
        (conv1): Conv2d(180, 144, kernel_size=(1, 1), stride=(1, 1), bias=False)
        (bn2): BatchNorm2d(144, eps=1e-05, momentum=0.1, affine=True)
        (conv2): Conv2d(144, 36, kernel_size=(3, 3), stride=(1, 1), padding=(1, 1), bias=False)
      )
      (4): BottleneckBlock (
        (bn1): BatchNorm2d(216, eps=1e-05, momentum=0.1, affine=True)
        (relu): ReLU (inplace)
        (conv1): Conv2d(216, 144, kernel_size=(1, 1), stride=(1, 1), bias=False)
        (bn2): BatchNorm2d(144, eps=1e-05, momentum=0.1, affine=True)
        (conv2): Conv2d(144, 36, kernel_size=(3, 3), stride=(1, 1), padding=(1, 1), bias=False)
      )
      (5): BottleneckBlock (
        (bn1): BatchNorm2d(252, eps=1e-05, momentum=0.1, affine=True)
        (relu): ReLU (inplace)
        (conv1): Conv2d(252, 144, kernel_size=(1, 1), stride=(1, 1), bias=False)
        (bn2): BatchNorm2d(144, eps=1e-05, momentum=0.1, affine=True)
        (conv2): Conv2d(144, 36, kernel_size=(3, 3), stride=(1, 1), padding=(1, 1), bias=False)
      )
    )
  )
  (trans1): TransitionBlock (
    (bn1): BatchNorm2d(288, eps=1e-05, momentum=0.1, affine=True)
    (relu): ReLU (inplace)
    (conv1): Conv2d(288, 144, kernel_size=(1, 1), stride=(1, 1), bias=False)
  )
  (block2): DenseBlock (
    (layer): Sequential (
      (0): BottleneckBlock (
        (bn1): BatchNorm2d(144, eps=1e-05, momentum=0.1, affine=True)
        (relu): ReLU (inplace)
        (conv1): Conv2d(144, 144, kernel_size=(1, 1), stride=(1, 1), bias=False)
        (bn2): BatchNorm2d(144, eps=1e-05, momentum=0.1, affine=True)
        (conv2): Conv2d(144, 36, kernel_size=(3, 3), stride=(1, 1), padding=(1, 1), bias=False)
      )
      (1): BottleneckBlock (
        (bn1): BatchNorm2d(180, eps=1e-05, momentum=0.1, affine=True)
        (relu): ReLU (inplace)
        (conv1): Conv2d(180, 144, kernel_size=(1, 1), stride=(1, 1), bias=False)
        (bn2): BatchNorm2d(144, eps=1e-05, momentum=0.1, affine=True)
        (conv2): Conv2d(144, 36, kernel_size=(3, 3), stride=(1, 1), padding=(1, 1), bias=False)
      )
      (2): BottleneckBlock (
        (bn1): BatchNorm2d(216, eps=1e-05, momentum=0.1, affine=True)
        (relu): ReLU (inplace)
        (conv1): Conv2d(216, 144, kernel_size=(1, 1), stride=(1, 1), bias=False)
        (bn2): BatchNorm2d(144, eps=1e-05, momentum=0.1, affine=True)
        (conv2): Conv2d(144, 36, kernel_size=(3, 3), stride=(1, 1), padding=(1, 1), bias=False)
      )
      (3): BottleneckBlock (
        (bn1): BatchNorm2d(252, eps=1e-05, momentum=0.1, affine=True)
        (relu): ReLU (inplace)
        (conv1): Conv2d(252, 144, kernel_size=(1, 1), stride=(1, 1), bias=False)
        (bn2): BatchNorm2d(144, eps=1e-05, momentum=0.1, affine=True)
        (conv2): Conv2d(144, 36, kernel_size=(3, 3), stride=(1, 1), padding=(1, 1), bias=False)
      )
      (4): BottleneckBlock (
        (bn1): BatchNorm2d(288, eps=1e-05, momentum=0.1, affine=True)
        (relu): ReLU (inplace)
        (conv1): Conv2d(288, 144, kernel_size=(1, 1), stride=(1, 1), bias=False)
        (bn2): BatchNorm2d(144, eps=1e-05, momentum=0.1, affine=True)
        (conv2): Conv2d(144, 36, kernel_size=(3, 3), stride=(1, 1), padding=(1, 1), bias=False)
      )
      (5): BottleneckBlock (
        (bn1): BatchNorm2d(324, eps=1e-05, momentum=0.1, affine=True)
        (relu): ReLU (inplace)
        (conv1): Conv2d(324, 144, kernel_size=(1, 1), stride=(1, 1), bias=False)
        (bn2): BatchNorm2d(144, eps=1e-05, momentum=0.1, affine=True)
        (conv2): Conv2d(144, 36, kernel_size=(3, 3), stride=(1, 1), padding=(1, 1), bias=False)
      )
    )
  )
  (trans2): TransitionBlock (
    (bn1): BatchNorm2d(360, eps=1e-05, momentum=0.1, affine=True)
    (relu): ReLU (inplace)
    (conv1): Conv2d(360, 180, kernel_size=(1, 1), stride=(1, 1), bias=False)
  )
  (block3): DenseBlock (
    (layer): Sequential (
      (0): BottleneckBlock (
        (bn1): BatchNorm2d(180, eps=1e-05, momentum=0.1, affine=True)
        (relu): ReLU (inplace)
        (conv1): Conv2d(180, 144, kernel_size=(1, 1), stride=(1, 1), bias=False)
        (bn2): BatchNorm2d(144, eps=1e-05, momentum=0.1, affine=True)
        (conv2): Conv2d(144, 36, kernel_size=(3, 3), stride=(1, 1), padding=(1, 1), bias=False)
      )
      (1): BottleneckBlock (
        (bn1): BatchNorm2d(216, eps=1e-05, momentum=0.1, affine=True)
        (relu): ReLU (inplace)
        (conv1): Conv2d(216, 144, kernel_size=(1, 1), stride=(1, 1), bias=False)
        (bn2): BatchNorm2d(144, eps=1e-05, momentum=0.1, affine=True)
        (conv2): Conv2d(144, 36, kernel_size=(3, 3), stride=(1, 1), padding=(1, 1), bias=False)
      )
      (2): BottleneckBlock (
        (bn1): BatchNorm2d(252, eps=1e-05, momentum=0.1, affine=True)
        (relu): ReLU (inplace)
        (conv1): Conv2d(252, 144, kernel_size=(1, 1), stride=(1, 1), bias=False)
        (bn2): BatchNorm2d(144, eps=1e-05, momentum=0.1, affine=True)
        (conv2): Conv2d(144, 36, kernel_size=(3, 3), stride=(1, 1), padding=(1, 1), bias=False)
      )
      (3): BottleneckBlock (
        (bn1): BatchNorm2d(288, eps=1e-05, momentum=0.1, affine=True)
        (relu): ReLU (inplace)
        (conv1): Conv2d(288, 144, kernel_size=(1, 1), stride=(1, 1), bias=False)
        (bn2): BatchNorm2d(144, eps=1e-05, momentum=0.1, affine=True)
        (conv2): Conv2d(144, 36, kernel_size=(3, 3), stride=(1, 1), padding=(1, 1), bias=False)
      )
      (4): BottleneckBlock (
        (bn1): BatchNorm2d(324, eps=1e-05, momentum=0.1, affine=True)
        (relu): ReLU (inplace)
        (conv1): Conv2d(324, 144, kernel_size=(1, 1), stride=(1, 1), bias=False)
        (bn2): BatchNorm2d(144, eps=1e-05, momentum=0.1, affine=True)
        (conv2): Conv2d(144, 36, kernel_size=(3, 3), stride=(1, 1), padding=(1, 1), bias=False)
      )
      (5): BottleneckBlock (
        (bn1): BatchNorm2d(360, eps=1e-05, momentum=0.1, affine=True)
        (relu): ReLU (inplace)
        (conv1): Conv2d(360, 144, kernel_size=(1, 1), stride=(1, 1), bias=False)
        (bn2): BatchNorm2d(144, eps=1e-05, momentum=0.1, affine=True)
        (conv2): Conv2d(144, 36, kernel_size=(3, 3), stride=(1, 1), padding=(1, 1), bias=False)
      )
    )
  )
  (bn1): BatchNorm2d(396, eps=1e-05, momentum=0.1, affine=True)
  (relu): ReLU (inplace)
  (fc): Linear (396 -> 100)
)
Files already downloaded and verified
Starting epoch number: 0 Learning rate: 0.1
Train: [0]	Time 65.310	Data 0.346	Loss 3.747	Prec@1 12.3800	Prec@5 35.0720	
Val: [0]	Time 3.875	Data 0.168	Loss 3.369	Prec@1 19.2500	Prec@5 47.6100	
Best Prec@1: [19.250]	
Starting epoch number: 1 Learning rate: 0.1
Train: [1]	Time 64.618	Data 0.334	Loss 2.865	Prec@1 27.0480	Prec@5 58.6960	
…
