…
uate=False, expandConfig=None, expandSize=4, from_modelzoo=False, growth=48, layers=40, learningratescheduler='cifarschedular', logdir='../logs/densenetbc_cifar10_40_48', lr=0.1, manualSeed=123, maxlr=0.1, minlr=0.0005, model_def='densenet_cifar', momentum=0.9, name='densenetbc_cifar10_40_48', nclasses=10, nesterov=True, ngpus=1, optimType='sgd', pretrained=False, pretrained_file='', printfreq=200, reduce=0.5, resume='', start_epoch=0, store='', tenCrop=False, tensorboard=True, testOnly=False, verbose=False, weightDecay=0.0001, weight_init=False, widen_factor=4, workers=2)
DenseNet3 (
  (conv1): Conv2d(3, 96, kernel_size=(3, 3), stride=(1, 1), padding=(1, 1), bias=False)
  (block1): DenseBlock (
    (layer): Sequential (
      (0): BottleneckBlock (
        (bn1): BatchNorm2d(96, eps=1e-05, momentum=0.1, affine=True)
        (relu): ReLU (inplace)
        (conv1): Conv2d(96, 192, kernel_size=(1, 1), stride=(1, 1), bias=False)
        (bn2): BatchNorm2d(192, eps=1e-05, momentum=0.1, affine=True)
        (conv2): Conv2d(192, 48, kernel_size=(3, 3), stride=(1, 1), padding=(1, 1), bias=False)
      )
      (1): BottleneckBlock (
        (bn1): BatchNorm2d(144, eps=1e-05, momentum=0.1, affine=True)
        (relu): ReLU (inplace)
        (conv1): Conv2d(144, 192, kernel_size=(1, 1), stride=(1, 1), bias=False)
        (bn2): BatchNorm2d(192, eps=1e-05, momentum=0.1, affine=True)
        (conv2): Conv2d(192, 48, kernel_size=(3, 3), stride=(1, 1), padding=(1, 1), bias=False)
      )
      (2): BottleneckBlock (
        (bn1): BatchNorm2d(192, eps=1e-05, momentum=0.1, affine=True)
        (relu): ReLU (inplace)
        (conv1): Conv2d(192, 192, kernel_size=(1, 1), stride=(1, 1), bias=False)
        (bn2): BatchNorm2d(192, eps=1e-05, momentum=0.1, affine=True)
        (conv2): Conv2d(192, 48, kernel_size=(3, 3), stride=(1, 1), padding=(1, 1), bias=False)
      )
      (3): BottleneckBlock (
        (bn1): BatchNorm2d(240, eps=1e-05, momentum=0.1, affine=True)
        (relu): ReLU (inplace)
        (conv1): Conv2d(240, 192, kernel_size=(1, 1), stride=(1, 1), bias=False)
        (bn2): BatchNorm2d(192, eps=1e-05, momentum=0.1, affine=True)
        (conv2): Conv2d(192, 48, kernel_size=(3, 3), stride=(1, 1), padding=(1, 1), bias=False)
      )
      (4): BottleneckBlock (
        (bn1): BatchNorm2d(288, eps=1e-05, momentum=0.1, affine=True)
        (relu): ReLU (inplace)
        (conv1): Conv2d(288, 192, kernel_size=(1, 1), stride=(1, 1), bias=False)
        (bn2): BatchNorm2d(192, eps=1e-05, momentum=0.1, affine=True)
        (conv2): Conv2d(192, 48, kernel_size=(3, 3), stride=(1, 1), padding=(1, 1), bias=False)
      )
      (5): BottleneckBlock (
        (bn1): BatchNorm2d(336, eps=1e-05, momentum=0.1, affine=True)
        (relu): ReLU (inplace)
        (conv1): Conv2d(336, 192, kernel_size=(1, 1), stride=(1, 1), bias=False)
        (bn2): BatchNorm2d(192, eps=1e-05, momentum=0.1, affine=True)
        (conv2): Conv2d(192, 48, kernel_size=(3, 3), stride=(1, 1), padding=(1, 1), bias=False)
      )
    )
  )
  (trans1): TransitionBlock (
    (bn1): BatchNorm2d(384, eps=1e-05, momentum=0.1, affine=True)
    (relu): ReLU (inplace)
    (conv1): Conv2d(384, 192, kernel_size=(1, 1), stride=(1, 1), bias=False)
  )
  (block2): DenseBlock (
    (layer): Sequential (
      (0): BottleneckBlock (
        (bn1): BatchNorm2d(192, eps=1e-05, momentum=0.1, affine=True)
        (relu): ReLU (inplace)
        (conv1): Conv2d(192, 192, kernel_size=(1, 1), stride=(1, 1), bias=False)
        (bn2): BatchNorm2d(192, eps=1e-05, momentum=0.1, affine=True)
        (conv2): Conv2d(192, 48, kernel_size=(3, 3), stride=(1, 1), padding=(1, 1), bias=False)
      )
      (1): BottleneckBlock (
        (bn1): BatchNorm2d(240, eps=1e-05, momentum=0.1, affine=True)
        (relu): ReLU (inplace)
        (conv1): Conv2d(240, 192, kernel_size=(1, 1), stride=(1, 1), bias=False)
        (bn2): BatchNorm2d(192, eps=1e-05, momentum=0.1, affine=True)
        (conv2): Conv2d(192, 48, kernel_size=(3, 3), stride=(1, 1), padding=(1, 1), bias=False)
      )
      (2): BottleneckBlock (
        (bn1): BatchNorm2d(288, eps=1e-05, momentum=0.1, affine=True)
        (relu): ReLU (inplace)
        (conv1): Conv2d(288, 192, kernel_size=(1, 1), stride=(1, 1), bias=False)
        (bn2): BatchNorm2d(192, eps=1e-05, momentum=0.1, affine=True)
        (conv2): Conv2d(192, 48, kernel_size=(3, 3), stride=(1, 1), padding=(1, 1), bias=False)
      )
      (3): BottleneckBlock (
        (bn1): BatchNorm2d(336, eps=1e-05, momentum=0.1, affine=True)
        (relu): ReLU (inplace)
        (conv1): Conv2d(336, 192, kernel_size=(1, 1), stride=(1, 1), bias=False)
        (bn2): BatchNorm2d(192, eps=1e-05, momentum=0.1, affine=True)
        (conv2): Conv2d(192, 48, kernel_size=(3, 3), stride=(1, 1), padding=(1, 1), bias=False)
      )
      (4): BottleneckBlock (
        (bn1): BatchNorm2d(384, eps=1e-05, momentum=0.1, affine=True)
        (relu): ReLU (inplace)
        (conv1): Conv2d(384, 192, kernel_size=(1, 1), stride=(1, 1), bias=False)
        (bn2): BatchNorm2d(192, eps=1e-05, momentum=0.1, affine=True)
        (conv2): Conv2d(192, 48, kernel_size=(3, 3), stride=(1, 1), padding=(1, 1), bias=False)
      )
      (5): BottleneckBlock (
        (bn1): BatchNorm2d(432, eps=1e-05, momentum=0.1, affine=True)
        (relu): ReLU (inplace)
        (conv1): Conv2d(432, 192, kernel_size=(1, 1), stride=(1, 1), bias=False)
        (bn2): BatchNorm2d(192, eps=1e-05, momentum=0.1, affine=True)
        (conv2): Conv2d(192, 48, kernel_size=(3, 3), stride=(1, 1), padding=(1, 1), bias=False)
      )
    )
  )
  (trans2): TransitionBlock (
    (bn1): BatchNorm2d(480, eps=1e-05, momentum=0.1, affine=True)
    (relu): ReLU (inplace)
    (conv1): Conv2d(480, 240, kernel_size=(1, 1), stride=(1, 1), bias=False)
  )
  (block3): DenseBlock (
    (layer): Sequential (
      (0): BottleneckBlock (
        (bn1): BatchNorm2d(240, eps=1e-05, momentum=0.1, affine=True)
        (relu): ReLU (inplace)
        (conv1): Conv2d(240, 192, kernel_size=(1, 1), stride=(1, 1), bias=False)
        (bn2): BatchNorm2d(192, eps=1e-05, momentum=0.1, affine=True)
        (conv2): Conv2d(192, 48, kernel_size=(3, 3), stride=(1, 1), padding=(1, 1), bias=False)
      )
      (1): BottleneckBlock (
        (bn1): BatchNorm2d(288, eps=1e-05, momentum=0.1, affine=True)
        (relu): ReLU (inplace)
        (conv1): Conv2d(288, 192, kernel_size=(1, 1), stride=(1, 1), bias=False)
        (bn2): BatchNorm2d(192, eps=1e-05, momentum=0.1, affine=True)
        (conv2): Conv2d(192, 48, kernel_size=(3, 3), stride=(1, 1), padding=(1, 1), bias=False)
      )
      (2): BottleneckBlock (
        (bn1): BatchNorm2d(336, eps=1e-05, momentum=0.1, affine=True)
        (relu): ReLU (inplace)
        (conv1): Conv2d(336, 192, kernel_size=(1, 1), stride=(1, 1), bias=False)
        (bn2): BatchNorm2d(192, eps=1e-05, momentum=0.1, affine=True)
        (conv2): Conv2d(192, 48, kernel_size=(3, 3), stride=(1, 1), padding=(1, 1), bias=False)
      )
      (3): BottleneckBlock (
        (bn1): BatchNorm2d(384, eps=1e-05, momentum=0.1, affine=True)
        (relu): ReLU (inplace)
        (conv1): Conv2d(384, 192, kernel_size=(1, 1), stride=(1, 1), bias=False)
        (bn2): BatchNorm2d(192, eps=1e-05, momentum=0.1, affine=True)
        (conv2): Conv2d(192, 48, kernel_size=(3, 3), stride=(1, 1), padding=(1, 1), bias=False)
      )
      (4): BottleneckBlock (
        (bn1): BatchNorm2d(432, eps=1e-05, momentum=0.1, affine=True)
        (relu): ReLU (inplace)
        (conv1): Conv2d(432, 192, kernel_size=(1, 1), stride=(1, 1), bias=False)
        (bn2): BatchNorm2d(192, eps=1e-05, momentum=0.1, affine=True)
        (conv2): Conv2d(192, 48, kernel_size=(3, 3), stride=(1, 1), padding=(1, 1), bias=False)
      )
      (5): BottleneckBlock (
        (bn1): BatchNorm2d(480, eps=1e-05, momentum=0.1, affine=True)
        (relu): ReLU (inplace)
        (conv1): Conv2d(480, 192, kernel_size=(1, 1), stride=(1, 1), bias=False)
        (bn2): BatchNorm2d(192, eps=1e-05, momentum=0.1, affine=True)
        (conv2): Conv2d(192, 48, kernel_size=(3, 3), stride=(1, 1), padding=(1, 1), bias=False)
      )
    )
  )
  (bn1): BatchNorm2d(528, eps=1e-05, momentum=0.1, affine=True)
  (relu): ReLU (inplace)
  (fc): Linear (528 -> 10)
)
Files already downloaded and verified
Starting epoch number: 0 Learning rate: 0.1
Train: [0]	Time 85.050	Data 0.304	Loss 1.374	Prec@1 50.4060	Prec@5 92.0500	
Val: [0]	Time 4.939	Data 0.126	Loss 1.012	Prec@1 63.5100	Prec@5 96.9600	
Best Prec@1: [63.510]	
Starting epoch number: 1 Learning rate: 0.1
Train: [1]	Time 82.137	Data 0.306	Loss 0.820	Prec@1 71.0380	Prec@5 97.8860	
…
