…
e=False, expandConfig=None, expandSize=2, from_modelzoo=False, growth=60, layers=58, learningratescheduler='cifarschedular', logdir='../logs/densenetbc_cifar100_58_60', lr=0.1, manualSeed=123, maxlr=0.1, minlr=0.0005, model_def='densenet_cifar', momentum=0.9, name='densenetbc_cifar100_58_60', nclasses=100, nesterov=True, ngpus=1, optimType='sgd', pretrained=False, pretrained_file='', printfreq=200, reduce=0.5, resume='', start_epoch=0, store='', tenCrop=False, tensorboard=True, testOnly=False, verbose=False, weightDecay=0.0001, weight_init=False, widen_factor=4, workers=2)
DenseNet3 (
  (conv1): Conv2d(3, 120, kernel_size=(3, 3), stride=(1, 1), padding=(1, 1), bias=False)
  (block1): DenseBlock (
    (layer): Sequential (
      (0): BottleneckBlock (
        (bn1): BatchNorm2d(120, eps=1e-05, momentum=0.1, affine=True)
        (relu): ReLU (inplace)
        (conv1): Conv2d(120, 240, kernel_size=(1, 1), stride=(1, 1), bias=False)
        (bn2): BatchNorm2d(240, eps=1e-05, momentum=0.1, affine=True)
        (conv2): Conv2d(240, 60, kernel_size=(3, 3), stride=(1, 1), padding=(1, 1), bias=False)
      )
      (1): BottleneckBlock (
        (bn1): BatchNorm2d(180, eps=1e-05, momentum=0.1, affine=True)
        (relu): ReLU (inplace)
        (conv1): Conv2d(180, 240, kernel_size=(1, 1), stride=(1, 1), bias=False)
        (bn2): BatchNorm2d(240, eps=1e-05, momentum=0.1, affine=True)
        (conv2): Conv2d(240, 60, kernel_size=(3, 3), stride=(1, 1), padding=(1, 1), bias=False)
      )
      (2): BottleneckBlock (
        (bn1): BatchNorm2d(240, eps=1e-05, momentum=0.1, affine=True)
        (relu): ReLU (inplace)
        (conv1): Conv2d(240, 240, kernel_size=(1, 1), stride=(1, 1), bias=False)
        (bn2): BatchNorm2d(240, eps=1e-05, momentum=0.1, affine=True)
        (conv2): Conv2d(240, 60, kernel_size=(3, 3), stride=(1, 1), padding=(1, 1), bias=False)
      )
      (3): BottleneckBlock (
        (bn1): BatchNorm2d(300, eps=1e-05, momentum=0.1, affine=True)
        (relu): ReLU (inplace)
        (conv1): Conv2d(300, 240, kernel_size=(1, 1), stride=(1, 1), bias=False)
        (bn2): BatchNorm2d(240, eps=1e-05, momentum=0.1, affine=True)
        (conv2): Conv2d(240, 60, kernel_size=(3, 3), stride=(1, 1), padding=(1, 1), bias=False)
      )
      (4): BottleneckBlock (
        (bn1): BatchNorm2d(360, eps=1e-05, momentum=0.1, affine=True)
        (relu): ReLU (inplace)
        (conv1): Conv2d(360, 240, kernel_size=(1, 1), stride=(1, 1), bias=False)
        (bn2): BatchNorm2d(240, eps=1e-05, momentum=0.1, affine=True)
        (conv2): Conv2d(240, 60, kernel_size=(3, 3), stride=(1, 1), padding=(1, 1), bias=False)
      )
      (5): BottleneckBlock (
        (bn1): BatchNorm2d(420, eps=1e-05, momentum=0.1, affine=True)
        (relu): ReLU (inplace)
        (conv1): Conv2d(420, 240, kernel_size=(1, 1), stride=(1, 1), bias=False)
        (bn2): BatchNorm2d(240, eps=1e-05, momentum=0.1, affine=True)
        (conv2): Conv2d(240, 60, kernel_size=(3, 3), stride=(1, 1), padding=(1, 1), bias=False)
      )
      (6): BottleneckBlock (
        (bn1): BatchNorm2d(480, eps=1e-05, momentum=0.1, affine=True)
        (relu): ReLU (inplace)
        (conv1): Conv2d(480, 240, kernel_size=(1, 1), stride=(1, 1), bias=False)
        (bn2): BatchNorm2d(240, eps=1e-05, momentum=0.1, affine=True)
        (conv2): Conv2d(240, 60, kernel_size=(3, 3), stride=(1, 1), padding=(1, 1), bias=False)
      )
      (7): BottleneckBlock (
        (bn1): BatchNorm2d(540, eps=1e-05, momentum=0.1, affine=True)
        (relu): ReLU (inplace)
        (conv1): Conv2d(540, 240, kernel_size=(1, 1), stride=(1, 1), bias=False)
        (bn2): BatchNorm2d(240, eps=1e-05, momentum=0.1, affine=True)
        (conv2): Conv2d(240, 60, kernel_size=(3, 3), stride=(1, 1), padding=(1, 1), bias=False)
      )
      (8): BottleneckBlock (
        (bn1): BatchNorm2d(600, eps=1e-05, momentum=0.1, affine=True)
        (relu): ReLU (inplace)
        (conv1): Conv2d(600, 240, kernel_size=(1, 1), stride=(1, 1), bias=False)
        (bn2): BatchNorm2d(240, eps=1e-05, momentum=0.1, affine=True)
        (conv2): Conv2d(240, 60, kernel_size=(3, 3), stride=(1, 1), padding=(1, 1), bias=False)
      )
    )
  )
  (trans1): TransitionBlock (
    (bn1): BatchNorm2d(660, eps=1e-05, momentum=0.1, affine=True)
    (relu): ReLU (inplace)
    (conv1): Conv2d(660, 330, kernel_size=(1, 1), stride=(1, 1), bias=False)
  )
  (block2): DenseBlock (
    (layer): Sequential (
      (0): BottleneckBlock (
        (bn1): BatchNorm2d(330, eps=1e-05, momentum=0.1, affine=True)
        (relu): ReLU (inplace)
        (conv1): Conv2d(330, 240, kernel_size=(1, 1), stride=(1, 1), bias=False)
        (bn2): BatchNorm2d(240, eps=1e-05, momentum=0.1, affine=True)
        (conv2): Conv2d(240, 60, kernel_size=(3, 3), stride=(1, 1), padding=(1, 1), bias=False)
      )
      (1): BottleneckBlock (
        (bn1): BatchNorm2d(390, eps=1e-05, momentum=0.1, affine=True)
        (relu): ReLU (inplace)
        (conv1): Conv2d(390, 240, kernel_size=(1, 1), stride=(1, 1), bias=False)
        (bn2): BatchNorm2d(240, eps=1e-05, momentum=0.1, affine=True)
        (conv2): Conv2d(240, 60, kernel_size=(3, 3), stride=(1, 1), padding=(1, 1), bias=False)
      )
      (2): BottleneckBlock (
        (bn1): BatchNorm2d(450, eps=1e-05, momentum=0.1, affine=True)
        (relu): ReLU (inplace)
        (conv1): Conv2d(450, 240, kernel_size=(1, 1), stride=(1, 1), bias=False)
        (bn2): BatchNorm2d(240, eps=1e-05, momentum=0.1, affine=True)
        (conv2): Conv2d(240, 60, kernel_size=(3, 3), stride=(1, 1), padding=(1, 1), bias=False)
      )
      (3): BottleneckBlock (
        (bn1): BatchNorm2d(510, eps=1e-05, momentum=0.1, affine=True)
        (relu): ReLU (inplace)
        (conv1): Conv2d(510, 240, kernel_size=(1, 1), stride=(1, 1), bias=False)
        (bn2): BatchNorm2d(240, eps=1e-05, momentum=0.1, affine=True)
        (conv2): Conv2d(240, 60, kernel_size=(3, 3), stride=(1, 1), padding=(1, 1), bias=False)
      )
      (4): BottleneckBlock (
        (bn1): BatchNorm2d(570, eps=1e-05, momentum=0.1, affine=True)
        (relu): ReLU (inplace)
        (conv1): Conv2d(570, 240, kernel_size=(1, 1), stride=(1, 1), bias=False)
        (bn2): BatchNorm2d(240, eps=1e-05, momentum=0.1, affine=True)
        (conv2): Conv2d(240, 60, kernel_size=(3, 3), stride=(1, 1), padding=(1, 1), bias=False)
      )
      (5): BottleneckBlock (
        (bn1): BatchNorm2d(630, eps=1e-05, momentum=0.1, affine=True)
        (relu): ReLU (inplace)
        (conv1): Conv2d(630, 240, kernel_size=(1, 1), stride=(1, 1), bias=False)
        (bn2): BatchNorm2d(240, eps=1e-05, momentum=0.1, affine=True)
        (conv2): Conv2d(240, 60, kernel_size=(3, 3), stride=(1, 1), padding=(1, 1), bias=False)
      )
      (6): BottleneckBlock (
        (bn1): BatchNorm2d(690, eps=1e-05, momentum=0.1, affine=True)
        (relu): ReLU (inplace)
        (conv1): Conv2d(690, 240, kernel_size=(1, 1), stride=(1, 1), bias=False)
        (bn2): BatchNorm2d(240, eps=1e-05, momentum=0.1, affine=True)
        (conv2): Conv2d(240, 60, kernel_size=(3, 3), stride=(1, 1), padding=(1, 1), bias=False)
      )
      (7): BottleneckBlock (
        (bn1): BatchNorm2d(750, eps=1e-05, momentum=0.1, affine=True)
        (relu): ReLU (inplace)
        (conv1): Conv2d(750, 240, kernel_size=(1, 1), stride=(1, 1), bias=False)
        (bn2): BatchNorm2d(240, eps=1e-05, momentum=0.1, affine=True)
        (conv2): Conv2d(240, 60, kernel_size=(3, 3), stride=(1, 1), padding=(1, 1), bias=False)
      )
      (8): BottleneckBlock (
        (bn1): BatchNorm2d(810, eps=1e-05, momentum=0.1, affine=True)
        (relu): ReLU (inplace)
        (conv1): Conv2d(810, 240, kernel_size=(1, 1), stride=(1, 1), bias=False)
        (bn2): BatchNorm2d(240, eps=1e-05, momentum=0.1, affine=True)
        (conv2): Conv2d(240, 60, kernel_size=(3, 3), stride=(1, 1), padding=(1, 1), bias=False)
      )
    )
  )
  (trans2): TransitionBlock (
    (bn1): BatchNorm2d(870, eps=1e-05, momentum=0.1, affine=True)
    (relu): ReLU (inplace)
    (conv1): Conv2d(870, 435, kernel_size=(1, 1), stride=(1, 1), bias=False)
  )
  (block3): DenseBlock (
    (layer): Sequential (
      (0): BottleneckBlock (
        (bn1): BatchNorm2d(435, eps=1e-05, momentum=0.1, affine=True)
        (relu): ReLU (inplace)
        (conv1): Conv2d(435, 240, kernel_size=(1, 1), stride=(1, 1), bias=False)
        (bn2): BatchNorm2d(240, eps=1e-05, momentum=0.1, affine=True)
        (conv2): Conv2d(240, 60, kernel_size=(3, 3), stride=(1, 1), padding=(1, 1), bias=False)
      )
      (1): BottleneckBlock (
        (bn1): BatchNorm2d(495, eps=1e-05, momentum=0.1, affine=True)
        (relu): ReLU (inplace)
        (conv1): Conv2d(495, 240, kernel_size=(1, 1), stride=(1, 1), bias=False)
        (bn2): BatchNorm2d(240, eps=1e-05, momentum=0.1, affine=True)
        (conv2): Conv2d(240, 60, kernel_size=(3, 3), stride=(1, 1), padding=(1, 1), bias=False)
      )
      (2): BottleneckBlock (
        (bn1): BatchNorm2d(555, eps=1e-05, momentum=0.1, affine=True)
        (relu): ReLU (inplace)
        (conv1): Conv2d(555, 240, kernel_size=(1, 1), stride=(1, 1), bias=False)
        (bn2): BatchNorm2d(240, eps=1e-05, momentum=0.1, affine=True)
        (conv2): Conv2d(240, 60, kernel_size=(3, 3), stride=(1, 1), padding=(1, 1), bias=False)
      )
      (3): BottleneckBlock (
        (bn1): BatchNorm2d(615, eps=1e-05, momentum=0.1, affine=True)
        (relu): ReLU (inplace)
        (conv1): Conv2d(615, 240, kernel_size=(1, 1), stride=(1, 1), bias=False)
        (bn2): BatchNorm2d(240, eps=1e-05, momentum=0.1, affine=True)
        (conv2): Conv2d(240, 60, kernel_size=(3, 3), stride=(1, 1), padding=(1, 1), bias=False)
      )
      (4): BottleneckBlock (
        (bn1): BatchNorm2d(675, eps=1e-05, momentum=0.1, affine=True)
        (relu): ReLU (inplace)
        (conv1): Conv2d(675, 240, kernel_size=(1, 1), stride=(1, 1), bias=False)
        (bn2): BatchNorm2d(240, eps=1e-05, momentum=0.1, affine=True)
        (conv2): Conv2d(240, 60, kernel_size=(3, 3), stride=(1, 1), padding=(1, 1), bias=False)
      )
      (5): BottleneckBlock (
        (bn1): BatchNorm2d(735, eps=1e-05, momentum=0.1, affine=True)
        (relu): ReLU (inplace)
        (conv1): Conv2d(735, 240, kernel_size=(1, 1), stride=(1, 1), bias=False)
        (bn2): BatchNorm2d(240, eps=1e-05, momentum=0.1, affine=True)
        (conv2): Conv2d(240, 60, kernel_size=(3, 3), stride=(1, 1), padding=(1, 1), bias=False)
      )
      (6): BottleneckBlock (
        (bn1): BatchNorm2d(795, eps=1e-05, momentum=0.1, affine=True)
        (relu): ReLU (inplace)
        (conv1): Conv2d(795, 240, kernel_size=(1, 1), stride=(1, 1), bias=False)
        (bn2): BatchNorm2d(240, eps=1e-05, momentum=0.1, affine=True)
        (conv2): Conv2d(240, 60, kernel_size=(3, 3), stride=(1, 1), padding=(1, 1), bias=False)
      )
      (7): BottleneckBlock (
        (bn1): BatchNorm2d(855, eps=1e-05, momentum=0.1, affine=True)
        (relu): ReLU (inplace)
        (conv1): Conv2d(855, 240, kernel_size=(1, 1), stride=(1, 1), bias=False)
        (bn2): BatchNorm2d(240, eps=1e-05, momentum=0.1, affine=True)
        (conv2): Conv2d(240, 60, kernel_size=(3, 3), stride=(1, 1), padding=(1, 1), bias=False)
      )
      (8): BottleneckBlock (
        (bn1): BatchNorm2d(915, eps=1e-05, momentum=0.1, affine=True)
        (relu): ReLU (inplace)
        (conv1): Conv2d(915, 240, kernel_size=(1, 1), stride=(1, 1), bias=False)
        (bn2): BatchNorm2d(240, eps=1e-05, momentum=0.1, affine=True)
        (conv2): Conv2d(240, 60, kernel_size=(3, 3), stride=(1, 1), padding=(1, 1), bias=False)
      )
    )
  )
  (bn1): BatchNorm2d(975, eps=1e-05, momentum=0.1, affine=True)
  (relu): ReLU (inplace)
  (fc): Linear (975 -> 100)
)
Files already downloaded and verified
Starting epoch number: 0 Learning rate: 0.1
Train: [0]	Time 192.625	Data 0.444	Loss 3.785	Prec@1 12.0600	Prec@5 34.2840	
Val: [0]	Time 11.311	Data 0.169	Loss 3.624	Prec@1 16.6800	Prec@5 43.2600	
Best Prec@1: [16.680]	
Starting epoch number: 1 Learning rate: 0.1
Train: [1]	Time 188.652	Data 0.374	Loss 2.837	Prec@1 27.6080	Prec@5 59.3580	
…
