…
False, growth=24, layers=40, learningratescheduler='cifarschedular', logdir='../logs/densenetexpanderbc2wide_cifar10_40_24_expandSize2', lr=0.1, manualSeed=123, maxlr=0.1, minlr=0.0005, model_def='densenetexpander2_cifar', momentum=0.9, name='densenetexpanderbc2wide_cifar10_40_24_expandSize2', nclasses=10, nesterov=True, ngpus=1, optimType='sgd', pretrained=False, pretrained_file='', printfreq=200, reduce=0.5, resume='', start_epoch=0, store='', tenCrop=False, tensorboard=True, testOnly=False, verbose=False, weightDecay=0.0001, weight_init=False, widen_factor=4, workers=2)
DenseNet3 (
  (conv1): Conv2d(3, 48, kernel_size=(3, 3), stride=(1, 1), padding=(1, 1), bias=False)
  (block1): DenseBlock (
    (layer): Sequential (
      (0): BottleneckBlock (
        (bn1): BatchNorm2d(48, eps=1e-05, momentum=0.1, affine=True)
        (relu): ReLU (inplace)
        (conv1): ExpanderConv2d (
        )
        (bn2): BatchNorm2d(96, eps=1e-05, momentum=0.1, affine=True)
        (conv2): ExpanderConv2d (
        )
      )
      (1): BottleneckBlock (
        (bn1): BatchNorm2d(72, eps=1e-05, momentum=0.1, affine=True)
        (relu): ReLU (inplace)
        (conv1): ExpanderConv2d (
        )
        (bn2): BatchNorm2d(96, eps=1e-05, momentum=0.1, affine=True)
        (conv2): ExpanderConv2d (
        )
      )
      (2): BottleneckBlock (
        (bn1): BatchNorm2d(96, eps=1e-05, momentum=0.1, affine=True)
        (relu): ReLU (inplace)
        (conv1): ExpanderConv2d (
        )
        (bn2): BatchNorm2d(96, eps=1e-05, momentum=0.1, affine=True)
        (conv2): ExpanderConv2d (
        )
      )
      (3): BottleneckBlock (
        (bn1): BatchNorm2d(120, eps=1e-05, momentum=0.1, affine=True)
        (relu): ReLU (inplace)
        (conv1): ExpanderConv2d (
        )
        (bn2): BatchNorm2d(96, eps=1e-05, momentum=0.1, affine=True)
        (conv2): ExpanderConv2d (
        )
      )
      (4): BottleneckBlock (
        (bn1): BatchNorm2d(144, eps=1e-05, momentum=0.1, affine=True)
        (relu): ReLU (inplace)
        (conv1): ExpanderConv2d (
        )
        (bn2): BatchNorm2d(96, eps=1e-05, momentum=0.1, affine=True)
        (conv2): ExpanderConv2d (
        )
      )
      (5): BottleneckBlock (
        (bn1): BatchNorm2d(168, eps=1e-05, momentum=0.1, affine=True)
        (relu): ReLU (inplace)
        (conv1): ExpanderConv2d (
        )
        (bn2): BatchNorm2d(96, eps=1e-05, momentum=0.1, affine=True)
        (conv2): ExpanderConv2d (
        )
      )
    )
  )
  (trans1): TransitionBlock (
    (bn1): BatchNorm2d(192, eps=1e-05, momentum=0.1, affine=True)
    (relu): ReLU (inplace)
    (conv1): Conv2d(192, 96, kernel_size=(1, 1), stride=(1, 1), bias=False)
  )
  (block2): DenseBlock (
    (layer): Sequential (
      (0): BottleneckBlock (
        (bn1): BatchNorm2d(96, eps=1e-05, momentum=0.1, affine=True)
        (relu): ReLU (inplace)
        (conv1): ExpanderConv2d (
        )
        (bn2): BatchNorm2d(96, eps=1e-05, momentum=0.1, affine=True)
        (conv2): ExpanderConv2d (
        )
      )
      (1): BottleneckBlock (
        (bn1): BatchNorm2d(120, eps=1e-05, momentum=0.1, affine=True)
        (relu): ReLU (inplace)
        (conv1): ExpanderConv2d (
        )
        (bn2): BatchNorm2d(96, eps=1e-05, momentum=0.1, affine=True)
        (conv2): ExpanderConv2d (
        )
      )
      (2): BottleneckBlock (
        (bn1): BatchNorm2d(144, eps=1e-05, momentum=0.1, affine=True)
        (relu): ReLU (inplace)
        (conv1): ExpanderConv2d (
        )
        (bn2): BatchNorm2d(96, eps=1e-05, momentum=0.1, affine=True)
        (conv2): ExpanderConv2d (
        )
      )
      (3): BottleneckBlock (
        (bn1): BatchNorm2d(168, eps=1e-05, momentum=0.1, affine=True)
        (relu): ReLU (inplace)
        (conv1): ExpanderConv2d (
        )
        (bn2): BatchNorm2d(96, eps=1e-05, momentum=0.1, affine=True)
        (conv2): ExpanderConv2d (
        )
      )
      (4): BottleneckBlock (
        (bn1): BatchNorm2d(192, eps=1e-05, momentum=0.1, affine=True)
        (relu): ReLU (inplace)
        (conv1): ExpanderConv2d (
        )
        (bn2): BatchNorm2d(96, eps=1e-05, momentum=0.1, affine=True)
        (conv2): ExpanderConv2d (
        )
      )
      (5): BottleneckBlock (
        (bn1): BatchNorm2d(216, eps=1e-05, momentum=0.1, affine=True)
        (relu): ReLU (inplace)
        (conv1): ExpanderConv2d (
        )
        (bn2): BatchNorm2d(96, eps=1e-05, momentum=0.1, affine=True)
        (conv2): ExpanderConv2d (
        )
      )
    )
  )
  (trans2): TransitionBlock (
    (bn1): BatchNorm2d(240, eps=1e-05, momentum=0.1, affine=True)
    (relu): ReLU (inplace)
    (conv1): Conv2d(240, 120, kernel_size=(1, 1), stride=(1, 1), bias=False)
  )
  (block3): DenseBlock (
    (layer): Sequential (
      (0): BottleneckBlock (
        (bn1): BatchNorm2d(120, eps=1e-05, momentum=0.1, affine=True)
        (relu): ReLU (inplace)
        (conv1): ExpanderConv2d (
        )
        (bn2): BatchNorm2d(96, eps=1e-05, momentum=0.1, affine=True)
        (conv2): ExpanderConv2d (
        )
      )
      (1): BottleneckBlock (
        (bn1): BatchNorm2d(144, eps=1e-05, momentum=0.1, affine=True)
        (relu): ReLU (inplace)
        (conv1): ExpanderConv2d (
        )
        (bn2): BatchNorm2d(96, eps=1e-05, momentum=0.1, affine=True)
        (conv2): ExpanderConv2d (
        )
      )
      (2): BottleneckBlock (
        (bn1): BatchNorm2d(168, eps=1e-05, momentum=0.1, affine=True)
        (relu): ReLU (inplace)
        (conv1): ExpanderConv2d (
        )
        (bn2): BatchNorm2d(96, eps=1e-05, momentum=0.1, affine=True)
        (conv2): ExpanderConv2d (
        )
      )
      (3): BottleneckBlock (
        (bn1): BatchNorm2d(192, eps=1e-05, momentum=0.1, affine=True)
        (relu): ReLU (inplace)
        (conv1): ExpanderConv2d (
        )
        (bn2): BatchNorm2d(96, eps=1e-05, momentum=0.1, affine=True)
        (conv2): ExpanderConv2d (
        )
      )
      (4): BottleneckBlock (
        (bn1): BatchNorm2d(216, eps=1e-05, momentum=0.1, affine=True)
        (relu): ReLU (inplace)
        (conv1): ExpanderConv2d (
        )
        (bn2): BatchNorm2d(96, eps=1e-05, momentum=0.1, affine=True)
        (conv2): ExpanderConv2d (
        )
      )
      (5): BottleneckBlock (
        (bn1): BatchNorm2d(240, eps=1e-05, momentum=0.1, affine=True)
        (relu): ReLU (inplace)
        (conv1): ExpanderConv2d (
        )
        (bn2): BatchNorm2d(96, eps=1e-05, momentum=0.1, affine=True)
        (conv2): ExpanderConv2d (
        )
      )
    )
  )
  (bn1): BatchNorm2d(264, eps=1e-05, momentum=0.1, affine=True)
  (relu): ReLU (inplace)
  (fc): Linear (264 -> 10)
)
Files already downloaded and verified
Starting epoch number: 0 Learning rate: 0.1
Train: [0]	Time 41.101	Data 0.263	Loss 1.368	Prec@1 49.7300	Prec@5 92.2400	
Val: [0]	Time 2.345	Data 0.093	Loss 1.181	Prec@1 59.1300	Prec@5 94.6500	
Best Prec@1: [59.130]	
Starting epoch number: 1 Learning rate: 0.1
Train: [1]	Time 40.553	Data 0.279	Loss 0.880	Prec@1 68.8540	Prec@5 97.5760	
…
