…
rowth=100, layers=40, learningratescheduler='cifarschedular', logdir='../logs/densenetexpanderbc2wide_cifar100_40_100_expandSize16', lr=0.1, manualSeed=123, maxlr=0.1, minlr=0.0005, model_def='densenetexpander2_cifar', momentum=0.9, name='densenetexpanderbc2wide_cifar100_40_100_expandSize16', nclasses=100, nesterov=True, ngpus=1, optimType='sgd', pretrained=False, pretrained_file='', printfreq=200, reduce=0.5, resume='', start_epoch=0, store='', tenCrop=False, tensorboard=True, testOnly=False, verbose=False, weightDecay=0.0001, weight_init=False, widen_factor=4, workers=2)
DenseNet3 (
  (conv1): Conv2d(3, 200, kernel_size=(3, 3), stride=(1, 1), padding=(1, 1), bias=False)
  (block1): DenseBlock (
    (layer): Sequential (
      (0): BottleneckBlock (
        (bn1): BatchNorm2d(200, eps=1e-05, momentum=0.1, affine=True)
        (relu): ReLU (inplace)
        (conv1): ExpanderConv2d (
        )
        (bn2): BatchNorm2d(400, eps=1e-05, momentum=0.1, affine=True)
        (conv2): ExpanderConv2d (
        )
      )
      (1): BottleneckBlock (
        (bn1): BatchNorm2d(300, eps=1e-05, momentum=0.1, affine=True)
        (relu): ReLU (inplace)
        (conv1): ExpanderConv2d (
        )
        (bn2): BatchNorm2d(400, eps=1e-05, momentum=0.1, affine=True)
        (conv2): ExpanderConv2d (
        )
      )
      (2): BottleneckBlock (
        (bn1): BatchNorm2d(400, eps=1e-05, momentum=0.1, affine=True)
        (relu): ReLU (inplace)
        (conv1): ExpanderConv2d (
        )
        (bn2): BatchNorm2d(400, eps=1e-05, momentum=0.1, affine=True)
        (conv2): ExpanderConv2d (
        )
      )
      (3): BottleneckBlock (
        (bn1): BatchNorm2d(500, eps=1e-05, momentum=0.1, affine=True)
        (relu): ReLU (inplace)
        (conv1): ExpanderConv2d (
        )
        (bn2): BatchNorm2d(400, eps=1e-05, momentum=0.1, affine=True)
        (conv2): ExpanderConv2d (
        )
      )
      (4): BottleneckBlock (
        (bn1): BatchNorm2d(600, eps=1e-05, momentum=0.1, affine=True)
        (relu): ReLU (inplace)
        (conv1): ExpanderConv2d (
        )
        (bn2): BatchNorm2d(400, eps=1e-05, momentum=0.1, affine=True)
        (conv2): ExpanderConv2d (
        )
      )
      (5): BottleneckBlock (
        (bn1): BatchNorm2d(700, eps=1e-05, momentum=0.1, affine=True)
        (relu): ReLU (inplace)
        (conv1): ExpanderConv2d (
        )
        (bn2): BatchNorm2d(400, eps=1e-05, momentum=0.1, affine=True)
        (conv2): ExpanderConv2d (
        )
      )
    )
  )
  (trans1): TransitionBlock (
    (bn1): BatchNorm2d(800, eps=1e-05, momentum=0.1, affine=True)
    (relu): ReLU (inplace)
    (conv1): ExpanderConv2d (
    )
  )
  (block2): DenseBlock (
    (layer): Sequential (
      (0): BottleneckBlock (
        (bn1): BatchNorm2d(400, eps=1e-05, momentum=0.1, affine=True)
        (relu): ReLU (inplace)
        (conv1): ExpanderConv2d (
        )
        (bn2): BatchNorm2d(400, eps=1e-05, momentum=0.1, affine=True)
        (conv2): ExpanderConv2d (
        )
      )
      (1): BottleneckBlock (
        (bn1): BatchNorm2d(500, eps=1e-05, momentum=0.1, affine=True)
        (relu): ReLU (inplace)
        (conv1): ExpanderConv2d (
        )
        (bn2): BatchNorm2d(400, eps=1e-05, momentum=0.1, affine=True)
        (conv2): ExpanderConv2d (
        )
      )
      (2): BottleneckBlock (
        (bn1): BatchNorm2d(600, eps=1e-05, momentum=0.1, affine=True)
        (relu): ReLU (inplace)
        (conv1): ExpanderConv2d (
        )
        (bn2): BatchNorm2d(400, eps=1e-05, momentum=0.1, affine=True)
        (conv2): ExpanderConv2d (
        )
      )
      (3): BottleneckBlock (
        (bn1): BatchNorm2d(700, eps=1e-05, momentum=0.1, affine=True)
        (relu): ReLU (inplace)
        (conv1): ExpanderConv2d (
        )
        (bn2): BatchNorm2d(400, eps=1e-05, momentum=0.1, affine=True)
        (conv2): ExpanderConv2d (
        )
      )
      (4): BottleneckBlock (
        (bn1): BatchNorm2d(800, eps=1e-05, momentum=0.1, affine=True)
        (relu): ReLU (inplace)
        (conv1): ExpanderConv2d (
        )
        (bn2): BatchNorm2d(400, eps=1e-05, momentum=0.1, affine=True)
        (conv2): ExpanderConv2d (
        )
      )
      (5): BottleneckBlock (
        (bn1): BatchNorm2d(900, eps=1e-05, momentum=0.1, affine=True)
        (relu): ReLU (inplace)
        (conv1): ExpanderConv2d (
        )
        (bn2): BatchNorm2d(400, eps=1e-05, momentum=0.1, affine=True)
        (conv2): ExpanderConv2d (
        )
      )
    )
  )
  (trans2): TransitionBlock (
    (bn1): BatchNorm2d(1000, eps=1e-05, momentum=0.1, affine=True)
    (relu): ReLU (inplace)
    (conv1): ExpanderConv2d (
    )
  )
  (block3): DenseBlock (
    (layer): Sequential (
      (0): BottleneckBlock (
        (bn1): BatchNorm2d(500, eps=1e-05, momentum=0.1, affine=True)
        (relu): ReLU (inplace)
        (conv1): ExpanderConv2d (
        )
        (bn2): BatchNorm2d(400, eps=1e-05, momentum=0.1, affine=True)
        (conv2): ExpanderConv2d (
        )
      )
      (1): BottleneckBlock (
        (bn1): BatchNorm2d(600, eps=1e-05, momentum=0.1, affine=True)
        (relu): ReLU (inplace)
        (conv1): ExpanderConv2d (
        )
        (bn2): BatchNorm2d(400, eps=1e-05, momentum=0.1, affine=True)
        (conv2): ExpanderConv2d (
        )
      )
      (2): BottleneckBlock (
        (bn1): BatchNorm2d(700, eps=1e-05, momentum=0.1, affine=True)
        (relu): ReLU (inplace)
        (conv1): ExpanderConv2d (
        )
        (bn2): BatchNorm2d(400, eps=1e-05, momentum=0.1, affine=True)
        (conv2): ExpanderConv2d (
        )
      )
      (3): BottleneckBlock (
        (bn1): BatchNorm2d(800, eps=1e-05, momentum=0.1, affine=True)
        (relu): ReLU (inplace)
        (conv1): ExpanderConv2d (
        )
        (bn2): BatchNorm2d(400, eps=1e-05, momentum=0.1, affine=True)
        (conv2): ExpanderConv2d (
        )
      )
      (4): BottleneckBlock (
        (bn1): BatchNorm2d(900, eps=1e-05, momentum=0.1, affine=True)
        (relu): ReLU (inplace)
        (conv1): ExpanderConv2d (
        )
        (bn2): BatchNorm2d(400, eps=1e-05, momentum=0.1, affine=True)
        (conv2): ExpanderConv2d (
        )
      )
      (5): BottleneckBlock (
        (bn1): BatchNorm2d(1000, eps=1e-05, momentum=0.1, affine=True)
        (relu): ReLU (inplace)
        (conv1): ExpanderConv2d (
        )
        (bn2): BatchNorm2d(400, eps=1e-05, momentum=0.1, affine=True)
        (conv2): ExpanderConv2d (
        )
      )
    )
  )
  (bn1): BatchNorm2d(1100, eps=1e-05, momentum=0.1, affine=True)
  (relu): ReLU (inplace)
  (fc): Linear (1100 -> 100)
)
Files already downloaded and verified
Starting epoch number: 0 Learning rate: 0.1
Train: [0]	Time 234.617	Data 0.336	Loss 3.740	Prec@1 13.1420	Prec@5 35.8620	
Val: [0]	Time 15.138	Data 0.103	Loss 3.613	Prec@1 18.4200	Prec@5 45.1700	
Best Prec@1: [18.420]	
Starting epoch number: 1 Learning rate: 0.1
Train: [1]	Time 237.953	Data 0.279	Loss 2.777	Prec@1 29.5360	Prec@5 61.0080	
…
