…
se, growth=60, layers=70, learningratescheduler='cifarschedular', logdir='../logs/densenetexpanderbc2wide_cifar100_70_60_expandSize8', lr=0.1, manualSeed=123, maxlr=0.1, minlr=0.0005, model_def='densenetexpander2_cifar', momentum=0.9, name='densenetexpanderbc2wide_cifar100_70_60_expandSize8', nclasses=100, nesterov=True, ngpus=1, optimType='sgd', pretrained=False, pretrained_file='', printfreq=200, reduce=0.5, resume='', start_epoch=0, store='', tenCrop=False, tensorboard=True, testOnly=False, verbose=False, weightDecay=0.0001, weight_init=False, widen_factor=4, workers=2)
DenseNet3 (
  (conv1): Conv2d(3, 120, kernel_size=(3, 3), stride=(1, 1), padding=(1, 1), bias=False)
  (block1): DenseBlock (
    (layer): Sequential (
      (0): BottleneckBlock (
        (bn1): BatchNorm2d(120, eps=1e-05, momentum=0.1, affine=True)
        (relu): ReLU (inplace)
        (conv1): ExpanderConv2d (
        )
        (bn2): BatchNorm2d(240, eps=1e-05, momentum=0.1, affine=True)
        (conv2): ExpanderConv2d (
        )
      )
      (1): BottleneckBlock (
        (bn1): BatchNorm2d(180, eps=1e-05, momentum=0.1, affine=True)
        (relu): ReLU (inplace)
        (conv1): ExpanderConv2d (
        )
        (bn2): BatchNorm2d(240, eps=1e-05, momentum=0.1, affine=True)
        (conv2): ExpanderConv2d (
        )
      )
      (2): BottleneckBlock (
        (bn1): BatchNorm2d(240, eps=1e-05, momentum=0.1, affine=True)
        (relu): ReLU (inplace)
        (conv1): ExpanderConv2d (
        )
        (bn2): BatchNorm2d(240, eps=1e-05, momentum=0.1, affine=True)
        (conv2): ExpanderConv2d (
        )
      )
      (3): BottleneckBlock (
        (bn1): BatchNorm2d(300, eps=1e-05, momentum=0.1, affine=True)
        (relu): ReLU (inplace)
        (conv1): ExpanderConv2d (
        )
        (bn2): BatchNorm2d(240, eps=1e-05, momentum=0.1, affine=True)
        (conv2): ExpanderConv2d (
        )
      )
      (4): BottleneckBlock (
        (bn1): BatchNorm2d(360, eps=1e-05, momentum=0.1, affine=True)
        (relu): ReLU (inplace)
        (conv1): ExpanderConv2d (
        )
        (bn2): BatchNorm2d(240, eps=1e-05, momentum=0.1, affine=True)
        (conv2): ExpanderConv2d (
        )
      )
      (5): BottleneckBlock (
        (bn1): BatchNorm2d(420, eps=1e-05, momentum=0.1, affine=True)
        (relu): ReLU (inplace)
        (conv1): ExpanderConv2d (
        )
        (bn2): BatchNorm2d(240, eps=1e-05, momentum=0.1, affine=True)
        (conv2): ExpanderConv2d (
        )
      )
      (6): BottleneckBlock (
        (bn1): BatchNorm2d(480, eps=1e-05, momentum=0.1, affine=True)
        (relu): ReLU (inplace)
        (conv1): ExpanderConv2d (
        )
        (bn2): BatchNorm2d(240, eps=1e-05, momentum=0.1, affine=True)
        (conv2): ExpanderConv2d (
        )
      )
      (7): BottleneckBlock (
        (bn1): BatchNorm2d(540, eps=1e-05, momentum=0.1, affine=True)
        (relu): ReLU (inplace)
        (conv1): ExpanderConv2d (
        )
        (bn2): BatchNorm2d(240, eps=1e-05, momentum=0.1, affine=True)
        (conv2): ExpanderConv2d (
        )
      )
      (8): BottleneckBlock (
        (bn1): BatchNorm2d(600, eps=1e-05, momentum=0.1, affine=True)
        (relu): ReLU (inplace)
        (conv1): ExpanderConv2d (
        )
        (bn2): BatchNorm2d(240, eps=1e-05, momentum=0.1, affine=True)
        (conv2): ExpanderConv2d (
        )
      )
      (9): BottleneckBlock (
        (bn1): BatchNorm2d(660, eps=1e-05, momentum=0.1, affine=True)
        (relu): ReLU (inplace)
        (conv1): ExpanderConv2d (
        )
        (bn2): BatchNorm2d(240, eps=1e-05, momentum=0.1, affine=True)
        (conv2): ExpanderConv2d (
        )
      )
      (10): BottleneckBlock (
        (bn1): BatchNorm2d(720, eps=1e-05, momentum=0.1, affine=True)
        (relu): ReLU (inplace)
        (conv1): ExpanderConv2d (
        )
        (bn2): BatchNorm2d(240, eps=1e-05, momentum=0.1, affine=True)
        (conv2): ExpanderConv2d (
        )
      )
    )
  )
  (trans1): TransitionBlock (
    (bn1): BatchNorm2d(780, eps=1e-05, momentum=0.1, affine=True)
    (relu): ReLU (inplace)
    (conv1): ExpanderConv2d (
    )
  )
  (block2): DenseBlock (
    (layer): Sequential (
      (0): BottleneckBlock (
        (bn1): BatchNorm2d(390, eps=1e-05, momentum=0.1, affine=True)
        (relu): ReLU (inplace)
        (conv1): ExpanderConv2d (
        )
        (bn2): BatchNorm2d(240, eps=1e-05, momentum=0.1, affine=True)
        (conv2): ExpanderConv2d (
        )
      )
      (1): BottleneckBlock (
        (bn1): BatchNorm2d(450, eps=1e-05, momentum=0.1, affine=True)
        (relu): ReLU (inplace)
        (conv1): ExpanderConv2d (
        )
        (bn2): BatchNorm2d(240, eps=1e-05, momentum=0.1, affine=True)
        (conv2): ExpanderConv2d (
        )
      )
      (2): BottleneckBlock (
        (bn1): BatchNorm2d(510, eps=1e-05, momentum=0.1, affine=True)
        (relu): ReLU (inplace)
        (conv1): ExpanderConv2d (
        )
        (bn2): BatchNorm2d(240, eps=1e-05, momentum=0.1, affine=True)
        (conv2): ExpanderConv2d (
        )
      )
      (3): BottleneckBlock (
        (bn1): BatchNorm2d(570, eps=1e-05, momentum=0.1, affine=True)
        (relu): ReLU (inplace)
        (conv1): ExpanderConv2d (
        )
        (bn2): BatchNorm2d(240, eps=1e-05, momentum=0.1, affine=True)
        (conv2): ExpanderConv2d (
        )
      )
      (4): BottleneckBlock (
        (bn1): BatchNorm2d(630, eps=1e-05, momentum=0.1, affine=True)
        (relu): ReLU (inplace)
        (conv1): ExpanderConv2d (
        )
        (bn2): BatchNorm2d(240, eps=1e-05, momentum=0.1, affine=True)
        (conv2): ExpanderConv2d (
        )
      )
      (5): BottleneckBlock (
        (bn1): BatchNorm2d(690, eps=1e-05, momentum=0.1, affine=True)
        (relu): ReLU (inplace)
        (conv1): ExpanderConv2d (
        )
        (bn2): BatchNorm2d(240, eps=1e-05, momentum=0.1, affine=True)
        (conv2): ExpanderConv2d (
        )
      )
      (6): BottleneckBlock (
        (bn1): BatchNorm2d(750, eps=1e-05, momentum=0.1, affine=True)
        (relu): ReLU (inplace)
        (conv1): ExpanderConv2d (
        )
        (bn2): BatchNorm2d(240, eps=1e-05, momentum=0.1, affine=True)
        (conv2): ExpanderConv2d (
        )
      )
      (7): BottleneckBlock (
        (bn1): BatchNorm2d(810, eps=1e-05, momentum=0.1, affine=True)
        (relu): ReLU (inplace)
        (conv1): ExpanderConv2d (
        )
        (bn2): BatchNorm2d(240, eps=1e-05, momentum=0.1, affine=True)
        (conv2): ExpanderConv2d (
        )
      )
      (8): BottleneckBlock (
        (bn1): BatchNorm2d(870, eps=1e-05, momentum=0.1, affine=True)
        (relu): ReLU (inplace)
        (conv1): ExpanderConv2d (
        )
        (bn2): BatchNorm2d(240, eps=1e-05, momentum=0.1, affine=True)
        (conv2): ExpanderConv2d (
        )
      )
      (9): BottleneckBlock (
        (bn1): BatchNorm2d(930, eps=1e-05, momentum=0.1, affine=True)
        (relu): ReLU (inplace)
        (conv1): ExpanderConv2d (
        )
        (bn2): BatchNorm2d(240, eps=1e-05, momentum=0.1, affine=True)
        (conv2): ExpanderConv2d (
        )
      )
      (10): BottleneckBlock (
        (bn1): BatchNorm2d(990, eps=1e-05, momentum=0.1, affine=True)
        (relu): ReLU (inplace)
        (conv1): ExpanderConv2d (
        )
        (bn2): BatchNorm2d(240, eps=1e-05, momentum=0.1, affine=True)
        (conv2): ExpanderConv2d (
        )
      )
    )
  )
  (trans2): TransitionBlock (
    (bn1): BatchNorm2d(1050, eps=1e-05, momentum=0.1, affine=True)
    (relu): ReLU (inplace)
    (conv1): ExpanderConv2d (
    )
  )
  (block3): DenseBlock (
    (layer): Sequential (
      (0): BottleneckBlock (
        (bn1): BatchNorm2d(525, eps=1e-05, momentum=0.1, affine=True)
        (relu): ReLU (inplace)
        (conv1): ExpanderConv2d (
        )
        (bn2): BatchNorm2d(240, eps=1e-05, momentum=0.1, affine=True)
        (conv2): ExpanderConv2d (
        )
      )
      (1): BottleneckBlock (
        (bn1): BatchNorm2d(585, eps=1e-05, momentum=0.1, affine=True)
        (relu): ReLU (inplace)
        (conv1): ExpanderConv2d (
        )
        (bn2): BatchNorm2d(240, eps=1e-05, momentum=0.1, affine=True)
        (conv2): ExpanderConv2d (
        )
      )
      (2): BottleneckBlock (
        (bn1): BatchNorm2d(645, eps=1e-05, momentum=0.1, affine=True)
        (relu): ReLU (inplace)
        (conv1): ExpanderConv2d (
        )
        (bn2): BatchNorm2d(240, eps=1e-05, momentum=0.1, affine=True)
        (conv2): ExpanderConv2d (
        )
      )
      (3): BottleneckBlock (
        (bn1): BatchNorm2d(705, eps=1e-05, momentum=0.1, affine=True)
        (relu): ReLU (inplace)
        (conv1): ExpanderConv2d (
        )
        (bn2): BatchNorm2d(240, eps=1e-05, momentum=0.1, affine=True)
        (conv2): ExpanderConv2d (
        )
      )
      (4): BottleneckBlock (
        (bn1): BatchNorm2d(765, eps=1e-05, momentum=0.1, affine=True)
        (relu): ReLU (inplace)
        (conv1): ExpanderConv2d (
        )
        (bn2): BatchNorm2d(240, eps=1e-05, momentum=0.1, affine=True)
        (conv2): ExpanderConv2d (
        )
      )
      (5): BottleneckBlock (
        (bn1): BatchNorm2d(825, eps=1e-05, momentum=0.1, affine=True)
        (relu): ReLU (inplace)
        (conv1): ExpanderConv2d (
        )
        (bn2): BatchNorm2d(240, eps=1e-05, momentum=0.1, affine=True)
        (conv2): ExpanderConv2d (
        )
      )
      (6): BottleneckBlock (
        (bn1): BatchNorm2d(885, eps=1e-05, momentum=0.1, affine=True)
        (relu): ReLU (inplace)
        (conv1): ExpanderConv2d (
        )
        (bn2): BatchNorm2d(240, eps=1e-05, momentum=0.1, affine=True)
        (conv2): ExpanderConv2d (
        )
      )
      (7): BottleneckBlock (
        (bn1): BatchNorm2d(945, eps=1e-05, momentum=0.1, affine=True)
        (relu): ReLU (inplace)
        (conv1): ExpanderConv2d (
        )
        (bn2): BatchNorm2d(240, eps=1e-05, momentum=0.1, affine=True)
        (conv2): ExpanderConv2d (
        )
      )
      (8): BottleneckBlock (
        (bn1): BatchNorm2d(1005, eps=1e-05, momentum=0.1, affine=True)
        (relu): ReLU (inplace)
        (conv1): ExpanderConv2d (
        )
        (bn2): BatchNorm2d(240, eps=1e-05, momentum=0.1, affine=True)
        (conv2): ExpanderConv2d (
        )
      )
      (9): BottleneckBlock (
        (bn1): BatchNorm2d(1065, eps=1e-05, momentum=0.1, affine=True)
        (relu): ReLU (inplace)
        (conv1): ExpanderConv2d (
        )
        (bn2): BatchNorm2d(240, eps=1e-05, momentum=0.1, affine=True)
        (conv2): ExpanderConv2d (
        )
      )
      (10): BottleneckBlock (
        (bn1): BatchNorm2d(1125, eps=1e-05, momentum=0.1, affine=True)
        (relu): ReLU (inplace)
        (conv1): ExpanderConv2d (
        )
        (bn2): BatchNorm2d(240, eps=1e-05, momentum=0.1, affine=True)
        (conv2): ExpanderConv2d (
        )
      )
    )
  )
  (bn1): BatchNorm2d(1185, eps=1e-05, momentum=0.1, affine=True)
  (relu): ReLU (inplace)
  (fc): Linear (1185 -> 100)
)
Files already downloaded and verified
Starting epoch number: 0 Learning rate: 0.1
Train: [0]	Time 260.135	Data 0.339	Loss 3.756	Prec@1 12.8400	Prec@5 35.4580	
Val: [0]	Time 15.686	Data 0.094	Loss 3.596	Prec@1 18.9800	Prec@5 47.7300	
Best Prec@1: [18.980]	
Starting epoch number: 1 Learning rate: 0.1
Train: [1]	Time 260.961	Data 0.356	Loss 2.765	Prec@1 29.0640	Prec@5 61.2000	
…
