…
enet_resnetexpander50_expandsize2_nov4', lr=0.1, manualSeed=123, maxlr=0.1, minlr=1e-05, model_def='resnetexpander50', momentum=0.9, name='imagenet_resnetexpander50_expandsize2_nov4', nclasses=1000, nesterov=True, ngpus=2, optimType='sgd', pretrained=False, pretrained_file='', printfreq=200, reduce=0.5, resume='savedmodels/resnetexpander50_imagenet_resnetexpander50_expandsize2_nov4_best.pth.tar', start_epoch=0, store='', tenCrop=False, tensorboard=True, testOnly=False, verbose=True, weightDecay=0.0001, weight_init=False, widen_factor=4, workers=8)
DataParallel (
  (module): ResNet (
    (conv1): Conv2d(3, 64, kernel_size=(7, 7), stride=(2, 2), padding=(3, 3), bias=False)
    (bn1): BatchNorm2d(64, eps=1e-05, momentum=0.1, affine=True)
    (relu): ReLU (inplace)
    (maxpool): MaxPool2d (size=(3, 3), stride=(2, 2), padding=(1, 1), dilation=(1, 1))
    (layer1): Sequential (
      (0): Bottleneck (
        (conv1): ExpanderConv2d (
        )
        (bn1): BatchNorm2d(64, eps=1e-05, momentum=0.1, affine=True)
        (conv2): ExpanderConv2d (
        )
        (bn2): BatchNorm2d(64, eps=1e-05, momentum=0.1, affine=True)
        (conv3): ExpanderConv2d (
        )
        (bn3): BatchNorm2d(256, eps=1e-05, momentum=0.1, affine=True)
        (relu): ReLU (inplace)
        (downsample): Sequential (
          (0): Conv2d(64, 256, kernel_size=(1, 1), stride=(1, 1), bias=False)
          (1): BatchNorm2d(256, eps=1e-05, momentum=0.1, affine=True)
        )
      )
      (1): Bottleneck (
        (conv1): ExpanderConv2d (
        )
        (bn1): BatchNorm2d(64, eps=1e-05, momentum=0.1, affine=True)
        (conv2): ExpanderConv2d (
        )
        (bn2): BatchNorm2d(64, eps=1e-05, momentum=0.1, affine=True)
        (conv3): ExpanderConv2d (
        )
        (bn3): BatchNorm2d(256, eps=1e-05, momentum=0.1, affine=True)
        (relu): ReLU (inplace)
      )
      (2): Bottleneck (
        (conv1): ExpanderConv2d (
        )
        (bn1): BatchNorm2d(64, eps=1e-05, momentum=0.1, affine=True)
        (conv2): ExpanderConv2d (
        )
        (bn2): BatchNorm2d(64, eps=1e-05, momentum=0.1, affine=True)
        (conv3): ExpanderConv2d (
        )
        (bn3): BatchNorm2d(256, eps=1e-05, momentum=0.1, affine=True)
        (relu): ReLU (inplace)
      )
    )
    (layer2): Sequential (
      (0): Bottleneck (
        (conv1): ExpanderConv2d (
        )
        (bn1): BatchNorm2d(128, eps=1e-05, momentum=0.1, affine=True)
        (conv2): ExpanderConv2d (
        )
        (bn2): BatchNorm2d(128, eps=1e-05, momentum=0.1, affine=True)
        (conv3): ExpanderConv2d (
        )
        (bn3): BatchNorm2d(512, eps=1e-05, momentum=0.1, affine=True)
        (relu): ReLU (inplace)
        (downsample): Sequential (
          (0): Conv2d(256, 512, kernel_size=(1, 1), stride=(2, 2), bias=False)
          (1): BatchNorm2d(512, eps=1e-05, momentum=0.1, affine=True)
        )
      )
      (1): Bottleneck (
        (conv1): ExpanderConv2d (
        )
        (bn1): BatchNorm2d(128, eps=1e-05, momentum=0.1, affine=True)
        (conv2): ExpanderConv2d (
        )
        (bn2): BatchNorm2d(128, eps=1e-05, momentum=0.1, affine=True)
        (conv3): ExpanderConv2d (
        )
        (bn3): BatchNorm2d(512, eps=1e-05, momentum=0.1, affine=True)
        (relu): ReLU (inplace)
      )
      (2): Bottleneck (
        (conv1): ExpanderConv2d (
        )
        (bn1): BatchNorm2d(128, eps=1e-05, momentum=0.1, affine=True)
        (conv2): ExpanderConv2d (
        )
        (bn2): BatchNorm2d(128, eps=1e-05, momentum=0.1, affine=True)
        (conv3): ExpanderConv2d (
        )
        (bn3): BatchNorm2d(512, eps=1e-05, momentum=0.1, affine=True)
        (relu): ReLU (inplace)
      )
      (3): Bottleneck (
        (conv1): ExpanderConv2d (
        )
        (bn1): BatchNorm2d(128, eps=1e-05, momentum=0.1, affine=True)
        (conv2): ExpanderConv2d (
        )
        (bn2): BatchNorm2d(128, eps=1e-05, momentum=0.1, affine=True)
        (conv3): ExpanderConv2d (
        )
        (bn3): BatchNorm2d(512, eps=1e-05, momentum=0.1, affine=True)
        (relu): ReLU (inplace)
      )
    )
    (layer3): Sequential (
      (0): Bottleneck (
        (conv1): ExpanderConv2d (
        )
        (bn1): BatchNorm2d(256, eps=1e-05, momentum=0.1, affine=True)
        (conv2): ExpanderConv2d (
        )
        (bn2): BatchNorm2d(256, eps=1e-05, momentum=0.1, affine=True)
        (conv3): ExpanderConv2d (
        )
        (bn3): BatchNorm2d(1024, eps=1e-05, momentum=0.1, affine=True)
        (relu): ReLU (inplace)
        (downsample): Sequential (
          (0): Conv2d(512, 1024, kernel_size=(1, 1), stride=(2, 2), bias=False)
          (1): BatchNorm2d(1024, eps=1e-05, momentum=0.1, affine=True)
        )
      )
      (1): Bottleneck (
        (conv1): ExpanderConv2d (
        )
        (bn1): BatchNorm2d(256, eps=1e-05, momentum=0.1, affine=True)
        (conv2): ExpanderConv2d (
        )
        (bn2): BatchNorm2d(256, eps=1e-05, momentum=0.1, affine=True)
        (conv3): ExpanderConv2d (
        )
        (bn3): BatchNorm2d(1024, eps=1e-05, momentum=0.1, affine=True)
        (relu): ReLU (inplace)
      )
      (2): Bottleneck (
        (conv1): ExpanderConv2d (
        )
        (bn1): BatchNorm2d(256, eps=1e-05, momentum=0.1, affine=True)
        (conv2): ExpanderConv2d (
        )
        (bn2): BatchNorm2d(256, eps=1e-05, momentum=0.1, affine=True)
        (conv3): ExpanderConv2d (
        )
        (bn3): BatchNorm2d(1024, eps=1e-05, momentum=0.1, affine=True)
        (relu): ReLU (inplace)
      )
      (3): Bottleneck (
        (conv1): ExpanderConv2d (
        )
        (bn1): BatchNorm2d(256, eps=1e-05, momentum=0.1, affine=True)
        (conv2): ExpanderConv2d (
        )
        (bn2): BatchNorm2d(256, eps=1e-05, momentum=0.1, affine=True)
        (conv3): ExpanderConv2d (
        )
        (bn3): BatchNorm2d(1024, eps=1e-05, momentum=0.1, affine=True)
        (relu): ReLU (inplace)
      )
      (4): Bottleneck (
        (conv1): ExpanderConv2d (
        )
        (bn1): BatchNorm2d(256, eps=1e-05, momentum=0.1, affine=True)
        (conv2): ExpanderConv2d (
        )
        (bn2): BatchNorm2d(256, eps=1e-05, momentum=0.1, affine=True)
        (conv3): ExpanderConv2d (
        )
        (bn3): BatchNorm2d(1024, eps=1e-05, momentum=0.1, affine=True)
        (relu): ReLU (inplace)
      )
      (5): Bottleneck (
        (conv1): ExpanderConv2d (
        )
        (bn1): BatchNorm2d(256, eps=1e-05, momentum=0.1, affine=True)
        (conv2): ExpanderConv2d (
        )
        (bn2): BatchNorm2d(256, eps=1e-05, momentum=0.1, affine=True)
        (conv3): ExpanderConv2d (
        )
        (bn3): BatchNorm2d(1024, eps=1e-05, momentum=0.1, affine=True)
        (relu): ReLU (inplace)
      )
    )
    (layer4): Sequential (
      (0): Bottleneck (
        (conv1): ExpanderConv2d (
        )
        (bn1): BatchNorm2d(512, eps=1e-05, momentum=0.1, affine=True)
        (conv2): ExpanderConv2d (
        )
        (bn2): BatchNorm2d(512, eps=1e-05, momentum=0.1, affine=True)
        (conv3): ExpanderConv2d (
        )
        (bn3): BatchNorm2d(2048, eps=1e-05, momentum=0.1, affine=True)
        (relu): ReLU (inplace)
        (downsample): Sequential (
          (0): Conv2d(1024, 2048, kernel_size=(1, 1), stride=(2, 2), bias=False)
          (1): BatchNorm2d(2048, eps=1e-05, momentum=0.1, affine=True)
        )
      )
      (1): Bottleneck (
        (conv1): ExpanderConv2d (
        )
        (bn1): BatchNorm2d(512, eps=1e-05, momentum=0.1, affine=True)
        (conv2): ExpanderConv2d (
        )
        (bn2): BatchNorm2d(512, eps=1e-05, momentum=0.1, affine=True)
        (conv3): ExpanderConv2d (
        )
        (bn3): BatchNorm2d(2048, eps=1e-05, momentum=0.1, affine=True)
        (relu): ReLU (inplace)
      )
      (2): Bottleneck (
        (conv1): ExpanderConv2d (
        )
        (bn1): BatchNorm2d(512, eps=1e-05, momentum=0.1, affine=True)
        (conv2): ExpanderConv2d (
        )
        (bn2): BatchNorm2d(512, eps=1e-05, momentum=0.1, affine=True)
        (conv3): ExpanderConv2d (
        )
        (bn3): BatchNorm2d(2048, eps=1e-05, momentum=0.1, affine=True)
        (relu): ReLU (inplace)
      )
    )
    (avgpool): AvgPool2d (size=7, stride=7, padding=0, ceil_mode=False, count_include_pad=True)
    (fc): Linear (2048 -> 1000)
  )
)
=> loading checkpoint 'savedmodels/resnetexpander50_imagenet_resnetexpander50_expandsize2_nov4_best.pth.tar'
=> loaded checkpoint 'savedmodels/resnetexpander50_imagenet_resnetexpander50_expandsize2_nov4_best.pth.tar' (epoch 51)
…
