…
imagenetschedular', logdir='../logs/imagenet_densenetexpander121_expandsize2_nov12', lr=0.1, manualSeed=123, maxlr=0.1, minlr=1e-05, model_def='densenetexpander121', momentum=0.9, name='imagenet_densenetexpander121_expandsize2_nov12', nclasses=1000, nesterov=True, ngpus=2, optimType='sgd', pretrained=False, pretrained_file='', printfreq=200, reduce=0.5, resume='', start_epoch=0, store='', tenCrop=False, tensorboard=True, testOnly=False, verbose=True, weightDecay=0.0001, weight_init=False, widen_factor=4, workers=8)
DataParallel (
  (module): DenseNet (
    (features): Sequential (
      (conv0): Conv2d(3, 64, kernel_size=(7, 7), stride=(2, 2), padding=(3, 3), bias=False)
      (norm0): BatchNorm2d(64, eps=1e-05, momentum=0.1, affine=True)
      (relu0): ReLU (inplace)
      (pool0): MaxPool2d (size=(3, 3), stride=(2, 2), padding=(1, 1), dilation=(1, 1))
      (denseblock1): _DenseBlock (
        (denselayer1): _DenseLayer (
          (norm.1): BatchNorm2d(64, eps=1e-05, momentum=0.1, affine=True)
          (relu.1): ReLU (inplace)
          (conv.1): ExpanderConv2d (
          )
          (norm.2): BatchNorm2d(128, eps=1e-05, momentum=0.1, affine=True)
          (relu.2): ReLU (inplace)
          (conv.2): ExpanderConv2d (
          )
        )
        (denselayer2): _DenseLayer (
          (norm.1): BatchNorm2d(96, eps=1e-05, momentum=0.1, affine=True)
          (relu.1): ReLU (inplace)
          (conv.1): ExpanderConv2d (
          )
          (norm.2): BatchNorm2d(128, eps=1e-05, momentum=0.1, affine=True)
          (relu.2): ReLU (inplace)
          (conv.2): ExpanderConv2d (
          )
        )
        (denselayer3): _DenseLayer (
          (norm.1): BatchNorm2d(128, eps=1e-05, momentum=0.1, affine=True)
          (relu.1): ReLU (inplace)
          (conv.1): ExpanderConv2d (
          )
          (norm.2): BatchNorm2d(128, eps=1e-05, momentum=0.1, affine=True)
          (relu.2): ReLU (inplace)
          (conv.2): ExpanderConv2d (
          )
        )
        (denselayer4): _DenseLayer (
          (norm.1): BatchNorm2d(160, eps=1e-05, momentum=0.1, affine=True)
          (relu.1): ReLU (inplace)
          (conv.1): ExpanderConv2d (
          )
          (norm.2): BatchNorm2d(128, eps=1e-05, momentum=0.1, affine=True)
          (relu.2): ReLU (inplace)
          (conv.2): ExpanderConv2d (
          )
        )
        (denselayer5): _DenseLayer (
          (norm.1): BatchNorm2d(192, eps=1e-05, momentum=0.1, affine=True)
          (relu.1): ReLU (inplace)
          (conv.1): ExpanderConv2d (
          )
          (norm.2): BatchNorm2d(128, eps=1e-05, momentum=0.1, affine=True)
          (relu.2): ReLU (inplace)
          (conv.2): ExpanderConv2d (
          )
        )
        (denselayer6): _DenseLayer (
          (norm.1): BatchNorm2d(224, eps=1e-05, momentum=0.1, affine=True)
          (relu.1): ReLU (inplace)
          (conv.1): ExpanderConv2d (
          )
          (norm.2): BatchNorm2d(128, eps=1e-05, momentum=0.1, affine=True)
          (relu.2): ReLU (inplace)
          (conv.2): ExpanderConv2d (
          )
        )
      )
      (transition1): _Transition (
        (norm): BatchNorm2d(256, eps=1e-05, momentum=0.1, affine=True)
        (relu): ReLU (inplace)
        (conv): Conv2d(256, 128, kernel_size=(1, 1), stride=(1, 1), bias=False)
        (pool): AvgPool2d (size=2, stride=2, padding=0, ceil_mode=False, count_include_pad=True)
      )
      (denseblock2): _DenseBlock (
        (denselayer1): _DenseLayer (
          (norm.1): BatchNorm2d(128, eps=1e-05, momentum=0.1, affine=True)
          (relu.1): ReLU (inplace)
          (conv.1): ExpanderConv2d (
          )
          (norm.2): BatchNorm2d(128, eps=1e-05, momentum=0.1, affine=True)
          (relu.2): ReLU (inplace)
          (conv.2): ExpanderConv2d (
          )
        )
        (denselayer2): _DenseLayer (
          (norm.1): BatchNorm2d(160, eps=1e-05, momentum=0.1, affine=True)
          (relu.1): ReLU (inplace)
          (conv.1): ExpanderConv2d (
          )
          (norm.2): BatchNorm2d(128, eps=1e-05, momentum=0.1, affine=True)
          (relu.2): ReLU (inplace)
          (conv.2): ExpanderConv2d (
          )
        )
        (denselayer3): _DenseLayer (
          (norm.1): BatchNorm2d(192, eps=1e-05, momentum=0.1, affine=True)
          (relu.1): ReLU (inplace)
          (conv.1): ExpanderConv2d (
          )
          (norm.2): BatchNorm2d(128, eps=1e-05, momentum=0.1, affine=True)
          (relu.2): ReLU (inplace)
          (conv.2): ExpanderConv2d (
          )
        )
        (denselayer4): _DenseLayer (
          (norm.1): BatchNorm2d(224, eps=1e-05, momentum=0.1, affine=True)
          (relu.1): ReLU (inplace)
          (conv.1): ExpanderConv2d (
          )
          (norm.2): BatchNorm2d(128, eps=1e-05, momentum=0.1, affine=True)
          (relu.2): ReLU (inplace)
          (conv.2): ExpanderConv2d (
          )
        )
        (denselayer5): _DenseLayer (
          (norm.1): BatchNorm2d(256, eps=1e-05, momentum=0.1, affine=True)
          (relu.1): ReLU (inplace)
          (conv.1): ExpanderConv2d (
          )
          (norm.2): BatchNorm2d(128, eps=1e-05, momentum=0.1, affine=True)
          (relu.2): ReLU (inplace)
          (conv.2): ExpanderConv2d (
          )
        )
        (denselayer6): _DenseLayer (
          (norm.1): BatchNorm2d(288, eps=1e-05, momentum=0.1, affine=True)
          (relu.1): ReLU (inplace)
          (conv.1): ExpanderConv2d (
          )
          (norm.2): BatchNorm2d(128, eps=1e-05, momentum=0.1, affine=True)
          (relu.2): ReLU (inplace)
          (conv.2): ExpanderConv2d (
          )
        )
        (denselayer7): _DenseLayer (
          (norm.1): BatchNorm2d(320, eps=1e-05, momentum=0.1, affine=True)
          (relu.1): ReLU (inplace)
          (conv.1): ExpanderConv2d (
          )
          (norm.2): BatchNorm2d(128, eps=1e-05, momentum=0.1, affine=True)
          (relu.2): ReLU (inplace)
          (conv.2): ExpanderConv2d (
          )
        )
        (denselayer8): _DenseLayer (
          (norm.1): BatchNorm2d(352, eps=1e-05, momentum=0.1, affine=True)
          (relu.1): ReLU (inplace)
          (conv.1): ExpanderConv2d (
          )
          (norm.2): BatchNorm2d(128, eps=1e-05, momentum=0.1, affine=True)
          (relu.2): ReLU (inplace)
          (conv.2): ExpanderConv2d (
          )
        )
        (denselayer9): _DenseLayer (
          (norm.1): BatchNorm2d(384, eps=1e-05, momentum=0.1, affine=True)
          (relu.1): ReLU (inplace)
          (conv.1): ExpanderConv2d (
          )
          (norm.2): BatchNorm2d(128, eps=1e-05, momentum=0.1, affine=True)
          (relu.2): ReLU (inplace)
          (conv.2): ExpanderConv2d (
          )
        )
        (denselayer10): _DenseLayer (
          (norm.1): BatchNorm2d(416, eps=1e-05, momentum=0.1, affine=True)
          (relu.1): ReLU (inplace)
          (conv.1): ExpanderConv2d (
          )
          (norm.2): BatchNorm2d(128, eps=1e-05, momentum=0.1, affine=True)
          (relu.2): ReLU (inplace)
          (conv.2): ExpanderConv2d (
          )
        )
        (denselayer11): _DenseLayer (
          (norm.1): BatchNorm2d(448, eps=1e-05, momentum=0.1, affine=True)
          (relu.1): ReLU (inplace)
          (conv.1): ExpanderConv2d (
          )
          (norm.2): BatchNorm2d(128, eps=1e-05, momentum=0.1, affine=True)
          (relu.2): ReLU (inplace)
          (conv.2): ExpanderConv2d (
          )
        )
        (denselayer12): _DenseLayer (
          (norm.1): BatchNorm2d(480, eps=1e-05, momentum=0.1, affine=True)
          (relu.1): ReLU (inplace)
          (conv.1): ExpanderConv2d (
          )
          (norm.2): BatchNorm2d(128, eps=1e-05, momentum=0.1, affine=True)
          (relu.2): ReLU (inplace)
          (conv.2): ExpanderConv2d (
          )
        )
      )
      (transition2): _Transition (
        (norm): BatchNorm2d(512, eps=1e-05, momentum=0.1, affine=True)
        (relu): ReLU (inplace)
        (conv): Conv2d(512, 256, kernel_size=(1, 1), stride=(1, 1), bias=False)
        (pool): AvgPool2d (size=2, stride=2, padding=0, ceil_mode=False, count_include_pad=True)
      )
      (denseblock3): _DenseBlock (
        (denselayer1): _DenseLayer (
          (norm.1): BatchNorm2d(256, eps=1e-05, momentum=0.1, affine=True)
          (relu.1): ReLU (inplace)
          (conv.1): ExpanderConv2d (
          )
          (norm.2): BatchNorm2d(128, eps=1e-05, momentum=0.1, affine=True)
          (relu.2): ReLU (inplace)
          (conv.2): ExpanderConv2d (
          )
        )
        (denselayer2): _DenseLayer (
          (norm.1): BatchNorm2d(288, eps=1e-05, momentum=0.1, affine=True)
          (relu.1): ReLU (inplace)
          (conv.1): ExpanderConv2d (
          )
          (norm.2): BatchNorm2d(128, eps=1e-05, momentum=0.1, affine=True)
          (relu.2): ReLU (inplace)
          (conv.2): ExpanderConv2d (
          )
        )
        (denselayer3): _DenseLayer (
          (norm.1): BatchNorm2d(320, eps=1e-05, momentum=0.1, affine=True)
          (relu.1): ReLU (inplace)
          (conv.1): ExpanderConv2d (
          )
          (norm.2): BatchNorm2d(128, eps=1e-05, momentum=0.1, affine=True)
          (relu.2): ReLU (inplace)
          (conv.2): ExpanderConv2d (
          )
        )
        (denselayer4): _DenseLayer (
          (norm.1): BatchNorm2d(352, eps=1e-05, momentum=0.1, affine=True)
          (relu.1): ReLU (inplace)
          (conv.1): ExpanderConv2d (
          )
          (norm.2): BatchNorm2d(128, eps=1e-05, momentum=0.1, affine=True)
          (relu.2): ReLU (inplace)
          (conv.2): ExpanderConv2d (
          )
        )
        (denselayer5): _DenseLayer (
          (norm.1): BatchNorm2d(384, eps=1e-05, momentum=0.1, affine=True)
          (relu.1): ReLU (inplace)
          (conv.1): ExpanderConv2d (
          )
          (norm.2): BatchNorm2d(128, eps=1e-05, momentum=0.1, affine=True)
          (relu.2): ReLU (inplace)
          (conv.2): ExpanderConv2d (
          )
        )
        (denselayer6): _DenseLayer (
          (norm.1): BatchNorm2d(416, eps=1e-05, momentum=0.1, affine=True)
          (relu.1): ReLU (inplace)
          (conv.1): ExpanderConv2d (
          )
          (norm.2): BatchNorm2d(128, eps=1e-05, momentum=0.1, affine=True)
          (relu.2): ReLU (inplace)
          (conv.2): ExpanderConv2d (
          )
        )
        (denselayer7): _DenseLayer (
          (norm.1): BatchNorm2d(448, eps=1e-05, momentum=0.1, affine=True)
          (relu.1): ReLU (inplace)
          (conv.1): ExpanderConv2d (
          )
          (norm.2): BatchNorm2d(128, eps=1e-05, momentum=0.1, affine=True)
          (relu.2): ReLU (inplace)
          (conv.2): ExpanderConv2d (
          )
        )
        (denselayer8): _DenseLayer (
          (norm.1): BatchNorm2d(480, eps=1e-05, momentum=0.1, affine=True)
          (relu.1): ReLU (inplace)
          (conv.1): ExpanderConv2d (
          )
          (norm.2): BatchNorm2d(128, eps=1e-05, momentum=0.1, affine=True)
          (relu.2): ReLU (inplace)
          (conv.2): ExpanderConv2d (
          )
        )
        (denselayer9): _DenseLayer (
          (norm.1): BatchNorm2d(512, eps=1e-05, momentum=0.1, affine=True)
          (relu.1): ReLU (inplace)
          (conv.1): ExpanderConv2d (
          )
          (norm.2): BatchNorm2d(128, eps=1e-05, momentum=0.1, affine=True)
          (relu.2): ReLU (inplace)
          (conv.2): ExpanderConv2d (
          )
        )
        (denselayer10): _DenseLayer (
          (norm.1): BatchNorm2d(544, eps=1e-05, momentum=0.1, affine=True)
          (relu.1): ReLU (inplace)
          (conv.1): ExpanderConv2d (
          )
          (norm.2): BatchNorm2d(128, eps=1e-05, momentum=0.1, affine=True)
          (relu.2): ReLU (inplace)
          (conv.2): ExpanderConv2d (
          )
        )
        (denselayer11): _DenseLayer (
          (norm.1): BatchNorm2d(576, eps=1e-05, momentum=0.1, affine=True)
          (relu.1): ReLU (inplace)
          (conv.1): ExpanderConv2d (
          )
          (norm.2): BatchNorm2d(128, eps=1e-05, momentum=0.1, affine=True)
          (relu.2): ReLU (inplace)
          (conv.2): ExpanderConv2d (
          )
        )
        (denselayer12): _DenseLayer (
          (norm.1): BatchNorm2d(608, eps=1e-05, momentum=0.1, affine=True)
          (relu.1): ReLU (inplace)
          (conv.1): ExpanderConv2d (
          )
          (norm.2): BatchNorm2d(128, eps=1e-05, momentum=0.1, affine=True)
          (relu.2): ReLU (inplace)
          (conv.2): ExpanderConv2d (
          )
        )
        (denselayer13): _DenseLayer (
          (norm.1): BatchNorm2d(640, eps=1e-05, momentum=0.1, affine=True)
          (relu.1): ReLU (inplace)
          (conv.1): ExpanderConv2d (
          )
          (norm.2): BatchNorm2d(128, eps=1e-05, momentum=0.1, affine=True)
          (relu.2): ReLU (inplace)
          (conv.2): ExpanderConv2d (
          )
        )
        (denselayer14): _DenseLayer (
          (norm.1): BatchNorm2d(672, eps=1e-05, momentum=0.1, affine=True)
          (relu.1): ReLU (inplace)
          (conv.1): ExpanderConv2d (
          )
          (norm.2): BatchNorm2d(128, eps=1e-05, momentum=0.1, affine=True)
          (relu.2): ReLU (inplace)
          (conv.2): ExpanderConv2d (
          )
        )
        (denselayer15): _DenseLayer (
          (norm.1): BatchNorm2d(704, eps=1e-05, momentum=0.1, affine=True)
          (relu.1): ReLU (inplace)
          (conv.1): ExpanderConv2d (
          )
          (norm.2): BatchNorm2d(128, eps=1e-05, momentum=0.1, affine=True)
          (relu.2): ReLU (inplace)
          (conv.2): ExpanderConv2d (
          )
        )
        (denselayer16): _DenseLayer (
          (norm.1): BatchNorm2d(736, eps=1e-05, momentum=0.1, affine=True)
          (relu.1): ReLU (inplace)
          (conv.1): ExpanderConv2d (
          )
          (norm.2): BatchNorm2d(128, eps=1e-05, momentum=0.1, affine=True)
          (relu.2): ReLU (inplace)
          (conv.2): ExpanderConv2d (
          )
        )
        (denselayer17): _DenseLayer (
          (norm.1): BatchNorm2d(768, eps=1e-05, momentum=0.1, affine=True)
          (relu.1): ReLU (inplace)
          (conv.1): ExpanderConv2d (
          )
          (norm.2): BatchNorm2d(128, eps=1e-05, momentum=0.1, affine=True)
          (relu.2): ReLU (inplace)
          (conv.2): ExpanderConv2d (
          )
        )
        (denselayer18): _DenseLayer (
          (norm.1): BatchNorm2d(800, eps=1e-05, momentum=0.1, affine=True)
          (relu.1): ReLU (inplace)
          (conv.1): ExpanderConv2d (
          )
          (norm.2): BatchNorm2d(128, eps=1e-05, momentum=0.1, affine=True)
          (relu.2): ReLU (inplace)
          (conv.2): ExpanderConv2d (
          )
        )
        (denselayer19): _DenseLayer (
          (norm.1): BatchNorm2d(832, eps=1e-05, momentum=0.1, affine=True)
          (relu.1): ReLU (inplace)
          (conv.1): ExpanderConv2d (
          )
          (norm.2): BatchNorm2d(128, eps=1e-05, momentum=0.1, affine=True)
          (relu.2): ReLU (inplace)
          (conv.2): ExpanderConv2d (
          )
        )
        (denselayer20): _DenseLayer (
          (norm.1): BatchNorm2d(864, eps=1e-05, momentum=0.1, affine=True)
          (relu.1): ReLU (inplace)
          (conv.1): ExpanderConv2d (
          )
          (norm.2): BatchNorm2d(128, eps=1e-05, momentum=0.1, affine=True)
          (relu.2): ReLU (inplace)
          (conv.2): ExpanderConv2d (
          )
        )
        (denselayer21): _DenseLayer (
          (norm.1): BatchNorm2d(896, eps=1e-05, momentum=0.1, affine=True)
          (relu.1): ReLU (inplace)
          (conv.1): ExpanderConv2d (
          )
          (norm.2): BatchNorm2d(128, eps=1e-05, momentum=0.1, affine=True)
          (relu.2): ReLU (inplace)
          (conv.2): ExpanderConv2d (
          )
        )
        (denselayer22): _DenseLayer (
          (norm.1): BatchNorm2d(928, eps=1e-05, momentum=0.1, affine=True)
          (relu.1): ReLU (inplace)
          (conv.1): ExpanderConv2d (
          )
          (norm.2): BatchNorm2d(128, eps=1e-05, momentum=0.1, affine=True)
          (relu.2): ReLU (inplace)
          (conv.2): ExpanderConv2d (
          )
        )
        (denselayer23): _DenseLayer (
          (norm.1): BatchNorm2d(960, eps=1e-05, momentum=0.1, affine=True)
          (relu.1): ReLU (inplace)
          (conv.1): ExpanderConv2d (
          )
          (norm.2): BatchNorm2d(128, eps=1e-05, momentum=0.1, affine=True)
          (relu.2): ReLU (inplace)
          (conv.2): ExpanderConv2d (
          )
        )
        (denselayer24): _DenseLayer (
          (norm.1): BatchNorm2d(992, eps=1e-05, momentum=0.1, affine=True)
          (relu.1): ReLU (inplace)
          (conv.1): ExpanderConv2d (
          )
          (norm.2): BatchNorm2d(128, eps=1e-05, momentum=0.1, affine=True)
          (relu.2): ReLU (inplace)
          (conv.2): ExpanderConv2d (
          )
        )
      )
      (transition3): _Transition (
        (norm): BatchNorm2d(1024, eps=1e-05, momentum=0.1, affine=True)
        (relu): ReLU (inplace)
        (conv): Conv2d(1024, 512, kernel_size=(1, 1), stride=(1, 1), bias=False)
        (pool): AvgPool2d (size=2, stride=2, padding=0, ceil_mode=False, count_include_pad=True)
      )
      (denseblock4): _DenseBlock (
        (denselayer1): _DenseLayer (
          (norm.1): BatchNorm2d(512, eps=1e-05, momentum=0.1, affine=True)
          (relu.1): ReLU (inplace)
          (conv.1): ExpanderConv2d (
          )
          (norm.2): BatchNorm2d(128, eps=1e-05, momentum=0.1, affine=True)
          (relu.2): ReLU (inplace)
          (conv.2): ExpanderConv2d (
          )
        )
        (denselayer2): _DenseLayer (
          (norm.1): BatchNorm2d(544, eps=1e-05, momentum=0.1, affine=True)
          (relu.1): ReLU (inplace)
          (conv.1): ExpanderConv2d (
          )
          (norm.2): BatchNorm2d(128, eps=1e-05, momentum=0.1, affine=True)
          (relu.2): ReLU (inplace)
          (conv.2): ExpanderConv2d (
          )
        )
        (denselayer3): _DenseLayer (
          (norm.1): BatchNorm2d(576, eps=1e-05, momentum=0.1, affine=True)
          (relu.1): ReLU (inplace)
          (conv.1): ExpanderConv2d (
          )
          (norm.2): BatchNorm2d(128, eps=1e-05, momentum=0.1, affine=True)
          (relu.2): ReLU (inplace)
          (conv.2): ExpanderConv2d (
          )
        )
        (denselayer4): _DenseLayer (
          (norm.1): BatchNorm2d(608, eps=1e-05, momentum=0.1, affine=True)
          (relu.1): ReLU (inplace)
          (conv.1): ExpanderConv2d (
          )
          (norm.2): BatchNorm2d(128, eps=1e-05, momentum=0.1, affine=True)
          (relu.2): ReLU (inplace)
          (conv.2): ExpanderConv2d (
          )
        )
        (denselayer5): _DenseLayer (
          (norm.1): BatchNorm2d(640, eps=1e-05, momentum=0.1, affine=True)
          (relu.1): ReLU (inplace)
          (conv.1): ExpanderConv2d (
          )
          (norm.2): BatchNorm2d(128, eps=1e-05, momentum=0.1, affine=True)
          (relu.2): ReLU (inplace)
          (conv.2): ExpanderConv2d (
          )
        )
        (denselayer6): _DenseLayer (
          (norm.1): BatchNorm2d(672, eps=1e-05, momentum=0.1, affine=True)
          (relu.1): ReLU (inplace)
          (conv.1): ExpanderConv2d (
          )
          (norm.2): BatchNorm2d(128, eps=1e-05, momentum=0.1, affine=True)
          (relu.2): ReLU (inplace)
          (conv.2): ExpanderConv2d (
          )
        )
        (denselayer7): _DenseLayer (
          (norm.1): BatchNorm2d(704, eps=1e-05, momentum=0.1, affine=True)
          (relu.1): ReLU (inplace)
          (conv.1): ExpanderConv2d (
          )
          (norm.2): BatchNorm2d(128, eps=1e-05, momentum=0.1, affine=True)
          (relu.2): ReLU (inplace)
          (conv.2): ExpanderConv2d (
          )
        )
        (denselayer8): _DenseLayer (
          (norm.1): BatchNorm2d(736, eps=1e-05, momentum=0.1, affine=True)
          (relu.1): ReLU (inplace)
          (conv.1): ExpanderConv2d (
          )
          (norm.2): BatchNorm2d(128, eps=1e-05, momentum=0.1, affine=True)
          (relu.2): ReLU (inplace)
          (conv.2): ExpanderConv2d (
          )
        )
        (denselayer9): _DenseLayer (
          (norm.1): BatchNorm2d(768, eps=1e-05, momentum=0.1, affine=True)
          (relu.1): ReLU (inplace)
          (conv.1): ExpanderConv2d (
          )
          (norm.2): BatchNorm2d(128, eps=1e-05, momentum=0.1, affine=True)
          (relu.2): ReLU (inplace)
          (conv.2): ExpanderConv2d (
          )
        )
        (denselayer10): _DenseLayer (
          (norm.1): BatchNorm2d(800, eps=1e-05, momentum=0.1, affine=True)
          (relu.1): ReLU (inplace)
          (conv.1): ExpanderConv2d (
          )
          (norm.2): BatchNorm2d(128, eps=1e-05, momentum=0.1, affine=True)
          (relu.2): ReLU (inplace)
          (conv.2): ExpanderConv2d (
          )
        )
        (denselayer11): _DenseLayer (
          (norm.1): BatchNorm2d(832, eps=1e-05, momentum=0.1, affine=True)
          (relu.1): ReLU (inplace)
          (conv.1): ExpanderConv2d (
          )
          (norm.2): BatchNorm2d(128, eps=1e-05, momentum=0.1, affine=True)
          (relu.2): ReLU (inplace)
          (conv.2): ExpanderConv2d (
          )
        )
        (denselayer12): _DenseLayer (
          (norm.1): BatchNorm2d(864, eps=1e-05, momentum=0.1, affine=True)
          (relu.1): ReLU (inplace)
          (conv.1): ExpanderConv2d (
          )
          (norm.2): BatchNorm2d(128, eps=1e-05, momentum=0.1, affine=True)
          (relu.2): ReLU (inplace)
          (conv.2): ExpanderConv2d (
          )
        )
        (denselayer13): _DenseLayer (
          (norm.1): BatchNorm2d(896, eps=1e-05, momentum=0.1, affine=True)
          (relu.1): ReLU (inplace)
          (conv.1): ExpanderConv2d (
          )
          (norm.2): BatchNorm2d(128, eps=1e-05, momentum=0.1, affine=True)
          (relu.2): ReLU (inplace)
          (conv.2): ExpanderConv2d (
          )
        )
        (denselayer14): _DenseLayer (
          (norm.1): BatchNorm2d(928, eps=1e-05, momentum=0.1, affine=True)
          (relu.1): ReLU (inplace)
          (conv.1): ExpanderConv2d (
          )
          (norm.2): BatchNorm2d(128, eps=1e-05, momentum=0.1, affine=True)
          (relu.2): ReLU (inplace)
          (conv.2): ExpanderConv2d (
          )
        )
        (denselayer15): _DenseLayer (
          (norm.1): BatchNorm2d(960, eps=1e-05, momentum=0.1, affine=True)
          (relu.1): ReLU (inplace)
          (conv.1): ExpanderConv2d (
          )
          (norm.2): BatchNorm2d(128, eps=1e-05, momentum=0.1, affine=True)
          (relu.2): ReLU (inplace)
          (conv.2): ExpanderConv2d (
          )
        )
        (denselayer16): _DenseLayer (
          (norm.1): BatchNorm2d(992, eps=1e-05, momentum=0.1, affine=True)
          (relu.1): ReLU (inplace)
          (conv.1): ExpanderConv2d (
          )
          (norm.2): BatchNorm2d(128, eps=1e-05, momentum=0.1, affine=True)
          (relu.2): ReLU (inplace)
          (conv.2): ExpanderConv2d (
          )
        )
      )
      (norm5): BatchNorm2d(1024, eps=1e-05, momentum=0.1, affine=True)
    )
    (classifier): Linear (1024 -> 1000)
  )
)
Starting epoch number: 0 Learning rate: 0.1
Train: [0][0/10010]	Time 10.787 (10.787)	Data 1.076 (1.076)	Loss 6.925	Prec@1 0.0000	Prec@5 0.0000
Train: [0][200/10010]	Time 0.488 (97.996)	Data 0.006 (1.227)	Loss 6.827	Prec@1 0.4120	Prec@5 1.5780
Train: [0][400/10010]	Time 0.463 (185.722)	Data 0.003 (1.348)	Loss 6.698	Prec@1 0.5806	Prec@5 2.3262
…
