…
 manualSeed=123, maxlr=0.1, minlr=1e-05, model_def='densenetexpander161', momentum=0.9, name='imagenet_densenetexpander161_expandsize2_nov13', nclasses=1000, nesterov=True, ngpus=4, optimType='sgd', pretrained=False, pretrained_file='', printfreq=200, reduce=0.5, resume='savedmodels/densenetexpander161_imagenet_densenetexpander161_expandsize2_nov13_best.pth.tar', start_epoch=0, store='', tenCrop=False, tensorboard=True, testOnly=False, verbose=True, weightDecay=0.0001, weight_init=False, widen_factor=4, workers=12)
DataParallel (
  (module): DenseNet (
    (features): Sequential (
      (conv0): Conv2d(3, 96, kernel_size=(7, 7), stride=(2, 2), padding=(3, 3), bias=False)
      (norm0): BatchNorm2d(96, eps=1e-05, momentum=0.1, affine=True)
      (relu0): ReLU (inplace)
      (pool0): MaxPool2d (size=(3, 3), stride=(2, 2), padding=(1, 1), dilation=(1, 1))
      (denseblock1): _DenseBlock (
        (denselayer1): _DenseLayer (
          (norm.1): BatchNorm2d(96, eps=1e-05, momentum=0.1, affine=True)
          (relu.1): ReLU (inplace)
          (conv.1): ExpanderConv2d (
          )
          (norm.2): BatchNorm2d(192, eps=1e-05, momentum=0.1, affine=True)
          (relu.2): ReLU (inplace)
          (conv.2): ExpanderConv2d (
          )
        )
        (denselayer2): _DenseLayer (
          (norm.1): BatchNorm2d(144, eps=1e-05, momentum=0.1, affine=True)
          (relu.1): ReLU (inplace)
          (conv.1): ExpanderConv2d (
          )
          (norm.2): BatchNorm2d(192, eps=1e-05, momentum=0.1, affine=True)
          (relu.2): ReLU (inplace)
          (conv.2): ExpanderConv2d (
          )
        )
        (denselayer3): _DenseLayer (
          (norm.1): BatchNorm2d(192, eps=1e-05, momentum=0.1, affine=True)
          (relu.1): ReLU (inplace)
          (conv.1): ExpanderConv2d (
          )
          (norm.2): BatchNorm2d(192, eps=1e-05, momentum=0.1, affine=True)
          (relu.2): ReLU (inplace)
          (conv.2): ExpanderConv2d (
          )
        )
        (denselayer4): _DenseLayer (
          (norm.1): BatchNorm2d(240, eps=1e-05, momentum=0.1, affine=True)
          (relu.1): ReLU (inplace)
          (conv.1): ExpanderConv2d (
          )
          (norm.2): BatchNorm2d(192, eps=1e-05, momentum=0.1, affine=True)
          (relu.2): ReLU (inplace)
          (conv.2): ExpanderConv2d (
          )
        )
        (denselayer5): _DenseLayer (
          (norm.1): BatchNorm2d(288, eps=1e-05, momentum=0.1, affine=True)
          (relu.1): ReLU (inplace)
          (conv.1): ExpanderConv2d (
          )
          (norm.2): BatchNorm2d(192, eps=1e-05, momentum=0.1, affine=True)
          (relu.2): ReLU (inplace)
          (conv.2): ExpanderConv2d (
          )
        )
        (denselayer6): _DenseLayer (
          (norm.1): BatchNorm2d(336, eps=1e-05, momentum=0.1, affine=True)
          (relu.1): ReLU (inplace)
          (conv.1): ExpanderConv2d (
          )
          (norm.2): BatchNorm2d(192, eps=1e-05, momentum=0.1, affine=True)
          (relu.2): ReLU (inplace)
          (conv.2): ExpanderConv2d (
          )
        )
      )
      (transition1): _Transition (
        (norm): BatchNorm2d(384, eps=1e-05, momentum=0.1, affine=True)
        (relu): ReLU (inplace)
        (conv): Conv2d(384, 192, kernel_size=(1, 1), stride=(1, 1), bias=False)
        (pool): AvgPool2d (size=2, stride=2, padding=0, ceil_mode=False, count_include_pad=True)
      )
      (denseblock2): _DenseBlock (
        (denselayer1): _DenseLayer (
          (norm.1): BatchNorm2d(192, eps=1e-05, momentum=0.1, affine=True)
          (relu.1): ReLU (inplace)
          (conv.1): ExpanderConv2d (
          )
          (norm.2): BatchNorm2d(192, eps=1e-05, momentum=0.1, affine=True)
          (relu.2): ReLU (inplace)
          (conv.2): ExpanderConv2d (
          )
        )
        (denselayer2): _DenseLayer (
          (norm.1): BatchNorm2d(240, eps=1e-05, momentum=0.1, affine=True)
          (relu.1): ReLU (inplace)
          (conv.1): ExpanderConv2d (
          )
          (norm.2): BatchNorm2d(192, eps=1e-05, momentum=0.1, affine=True)
          (relu.2): ReLU (inplace)
          (conv.2): ExpanderConv2d (
          )
        )
        (denselayer3): _DenseLayer (
          (norm.1): BatchNorm2d(288, eps=1e-05, momentum=0.1, affine=True)
          (relu.1): ReLU (inplace)
          (conv.1): ExpanderConv2d (
          )
          (norm.2): BatchNorm2d(192, eps=1e-05, momentum=0.1, affine=True)
          (relu.2): ReLU (inplace)
          (conv.2): ExpanderConv2d (
          )
        )
        (denselayer4): _DenseLayer (
          (norm.1): BatchNorm2d(336, eps=1e-05, momentum=0.1, affine=True)
          (relu.1): ReLU (inplace)
          (conv.1): ExpanderConv2d (
          )
          (norm.2): BatchNorm2d(192, eps=1e-05, momentum=0.1, affine=True)
          (relu.2): ReLU (inplace)
          (conv.2): ExpanderConv2d (
          )
        )
        (denselayer5): _DenseLayer (
          (norm.1): BatchNorm2d(384, eps=1e-05, momentum=0.1, affine=True)
          (relu.1): ReLU (inplace)
          (conv.1): ExpanderConv2d (
          )
          (norm.2): BatchNorm2d(192, eps=1e-05, momentum=0.1, affine=True)
          (relu.2): ReLU (inplace)
          (conv.2): ExpanderConv2d (
          )
        )
        (denselayer6): _DenseLayer (
          (norm.1): BatchNorm2d(432, eps=1e-05, momentum=0.1, affine=True)
          (relu.1): ReLU (inplace)
          (conv.1): ExpanderConv2d (
          )
          (norm.2): BatchNorm2d(192, eps=1e-05, momentum=0.1, affine=True)
          (relu.2): ReLU (inplace)
          (conv.2): ExpanderConv2d (
          )
        )
        (denselayer7): _DenseLayer (
          (norm.1): BatchNorm2d(480, eps=1e-05, momentum=0.1, affine=True)
          (relu.1): ReLU (inplace)
          (conv.1): ExpanderConv2d (
          )
          (norm.2): BatchNorm2d(192, eps=1e-05, momentum=0.1, affine=True)
          (relu.2): ReLU (inplace)
          (conv.2): ExpanderConv2d (
          )
        )
        (denselayer8): _DenseLayer (
          (norm.1): BatchNorm2d(528, eps=1e-05, momentum=0.1, affine=True)
          (relu.1): ReLU (inplace)
          (conv.1): ExpanderConv2d (
          )
          (norm.2): BatchNorm2d(192, eps=1e-05, momentum=0.1, affine=True)
          (relu.2): ReLU (inplace)
          (conv.2): ExpanderConv2d (
          )
        )
        (denselayer9): _DenseLayer (
          (norm.1): BatchNorm2d(576, eps=1e-05, momentum=0.1, affine=True)
          (relu.1): ReLU (inplace)
          (conv.1): ExpanderConv2d (
          )
          (norm.2): BatchNorm2d(192, eps=1e-05, momentum=0.1, affine=True)
          (relu.2): ReLU (inplace)
          (conv.2): ExpanderConv2d (
          )
        )
        (denselayer10): _DenseLayer (
          (norm.1): BatchNorm2d(624, eps=1e-05, momentum=0.1, affine=True)
          (relu.1): ReLU (inplace)
          (conv.1): ExpanderConv2d (
          )
          (norm.2): BatchNorm2d(192, eps=1e-05, momentum=0.1, affine=True)
          (relu.2): ReLU (inplace)
          (conv.2): ExpanderConv2d (
          )
        )
        (denselayer11): _DenseLayer (
          (norm.1): BatchNorm2d(672, eps=1e-05, momentum=0.1, affine=True)
          (relu.1): ReLU (inplace)
          (conv.1): ExpanderConv2d (
          )
          (norm.2): BatchNorm2d(192, eps=1e-05, momentum=0.1, affine=True)
          (relu.2): ReLU (inplace)
          (conv.2): ExpanderConv2d (
          )
        )
        (denselayer12): _DenseLayer (
          (norm.1): BatchNorm2d(720, eps=1e-05, momentum=0.1, affine=True)
          (relu.1): ReLU (inplace)
          (conv.1): ExpanderConv2d (
          )
          (norm.2): BatchNorm2d(192, eps=1e-05, momentum=0.1, affine=True)
          (relu.2): ReLU (inplace)
          (conv.2): ExpanderConv2d (
          )
        )
      )
      (transition2): _Transition (
        (norm): BatchNorm2d(768, eps=1e-05, momentum=0.1, affine=True)
        (relu): ReLU (inplace)
        (conv): Conv2d(768, 384, kernel_size=(1, 1), stride=(1, 1), bias=False)
        (pool): AvgPool2d (size=2, stride=2, padding=0, ceil_mode=False, count_include_pad=True)
      )
      (denseblock3): _DenseBlock (
        (denselayer1): _DenseLayer (
          (norm.1): BatchNorm2d(384, eps=1e-05, momentum=0.1, affine=True)
          (relu.1): ReLU (inplace)
          (conv.1): ExpanderConv2d (
          )
          (norm.2): BatchNorm2d(192, eps=1e-05, momentum=0.1, affine=True)
          (relu.2): ReLU (inplace)
          (conv.2): ExpanderConv2d (
          )
        )
        (denselayer2): _DenseLayer (
          (norm.1): BatchNorm2d(432, eps=1e-05, momentum=0.1, affine=True)
          (relu.1): ReLU (inplace)
          (conv.1): ExpanderConv2d (
          )
          (norm.2): BatchNorm2d(192, eps=1e-05, momentum=0.1, affine=True)
          (relu.2): ReLU (inplace)
          (conv.2): ExpanderConv2d (
          )
        )
        (denselayer3): _DenseLayer (
          (norm.1): BatchNorm2d(480, eps=1e-05, momentum=0.1, affine=True)
          (relu.1): ReLU (inplace)
          (conv.1): ExpanderConv2d (
          )
          (norm.2): BatchNorm2d(192, eps=1e-05, momentum=0.1, affine=True)
          (relu.2): ReLU (inplace)
          (conv.2): ExpanderConv2d (
          )
        )
        (denselayer4): _DenseLayer (
          (norm.1): BatchNorm2d(528, eps=1e-05, momentum=0.1, affine=True)
          (relu.1): ReLU (inplace)
          (conv.1): ExpanderConv2d (
          )
          (norm.2): BatchNorm2d(192, eps=1e-05, momentum=0.1, affine=True)
          (relu.2): ReLU (inplace)
          (conv.2): ExpanderConv2d (
          )
        )
        (denselayer5): _DenseLayer (
          (norm.1): BatchNorm2d(576, eps=1e-05, momentum=0.1, affine=True)
          (relu.1): ReLU (inplace)
          (conv.1): ExpanderConv2d (
          )
          (norm.2): BatchNorm2d(192, eps=1e-05, momentum=0.1, affine=True)
          (relu.2): ReLU (inplace)
          (conv.2): ExpanderConv2d (
          )
        )
        (denselayer6): _DenseLayer (
          (norm.1): BatchNorm2d(624, eps=1e-05, momentum=0.1, affine=True)
          (relu.1): ReLU (inplace)
          (conv.1): ExpanderConv2d (
          )
          (norm.2): BatchNorm2d(192, eps=1e-05, momentum=0.1, affine=True)
          (relu.2): ReLU (inplace)
          (conv.2): ExpanderConv2d (
          )
        )
        (denselayer7): _DenseLayer (
          (norm.1): BatchNorm2d(672, eps=1e-05, momentum=0.1, affine=True)
          (relu.1): ReLU (inplace)
          (conv.1): ExpanderConv2d (
          )
          (norm.2): BatchNorm2d(192, eps=1e-05, momentum=0.1, affine=True)
          (relu.2): ReLU (inplace)
          (conv.2): ExpanderConv2d (
          )
        )
        (denselayer8): _DenseLayer (
          (norm.1): BatchNorm2d(720, eps=1e-05, momentum=0.1, affine=True)
          (relu.1): ReLU (inplace)
          (conv.1): ExpanderConv2d (
          )
          (norm.2): BatchNorm2d(192, eps=1e-05, momentum=0.1, affine=True)
          (relu.2): ReLU (inplace)
          (conv.2): ExpanderConv2d (
          )
        )
        (denselayer9): _DenseLayer (
          (norm.1): BatchNorm2d(768, eps=1e-05, momentum=0.1, affine=True)
          (relu.1): ReLU (inplace)
          (conv.1): ExpanderConv2d (
          )
          (norm.2): BatchNorm2d(192, eps=1e-05, momentum=0.1, affine=True)
          (relu.2): ReLU (inplace)
          (conv.2): ExpanderConv2d (
          )
        )
        (denselayer10): _DenseLayer (
          (norm.1): BatchNorm2d(816, eps=1e-05, momentum=0.1, affine=True)
          (relu.1): ReLU (inplace)
          (conv.1): ExpanderConv2d (
          )
          (norm.2): BatchNorm2d(192, eps=1e-05, momentum=0.1, affine=True)
          (relu.2): ReLU (inplace)
          (conv.2): ExpanderConv2d (
          )
        )
        (denselayer11): _DenseLayer (
          (norm.1): BatchNorm2d(864, eps=1e-05, momentum=0.1, affine=True)
          (relu.1): ReLU (inplace)
          (conv.1): ExpanderConv2d (
          )
          (norm.2): BatchNorm2d(192, eps=1e-05, momentum=0.1, affine=True)
          (relu.2): ReLU (inplace)
          (conv.2): ExpanderConv2d (
          )
        )
        (denselayer12): _DenseLayer (
          (norm.1): BatchNorm2d(912, eps=1e-05, momentum=0.1, affine=True)
          (relu.1): ReLU (inplace)
          (conv.1): ExpanderConv2d (
          )
          (norm.2): BatchNorm2d(192, eps=1e-05, momentum=0.1, affine=True)
          (relu.2): ReLU (inplace)
          (conv.2): ExpanderConv2d (
          )
        )
        (denselayer13): _DenseLayer (
          (norm.1): BatchNorm2d(960, eps=1e-05, momentum=0.1, affine=True)
          (relu.1): ReLU (inplace)
          (conv.1): ExpanderConv2d (
          )
          (norm.2): BatchNorm2d(192, eps=1e-05, momentum=0.1, affine=True)
          (relu.2): ReLU (inplace)
          (conv.2): ExpanderConv2d (
          )
        )
        (denselayer14): _DenseLayer (
          (norm.1): BatchNorm2d(1008, eps=1e-05, momentum=0.1, affine=True)
          (relu.1): ReLU (inplace)
          (conv.1): ExpanderConv2d (
          )
          (norm.2): BatchNorm2d(192, eps=1e-05, momentum=0.1, affine=True)
          (relu.2): ReLU (inplace)
          (conv.2): ExpanderConv2d (
          )
        )
        (denselayer15): _DenseLayer (
          (norm.1): BatchNorm2d(1056, eps=1e-05, momentum=0.1, affine=True)
          (relu.1): ReLU (inplace)
          (conv.1): ExpanderConv2d (
          )
          (norm.2): BatchNorm2d(192, eps=1e-05, momentum=0.1, affine=True)
          (relu.2): ReLU (inplace)
          (conv.2): ExpanderConv2d (
          )
        )
        (denselayer16): _DenseLayer (
          (norm.1): BatchNorm2d(1104, eps=1e-05, momentum=0.1, affine=True)
          (relu.1): ReLU (inplace)
          (conv.1): ExpanderConv2d (
          )
          (norm.2): BatchNorm2d(192, eps=1e-05, momentum=0.1, affine=True)
          (relu.2): ReLU (inplace)
          (conv.2): ExpanderConv2d (
          )
        )
        (denselayer17): _DenseLayer (
          (norm.1): BatchNorm2d(1152, eps=1e-05, momentum=0.1, affine=True)
          (relu.1): ReLU (inplace)
          (conv.1): ExpanderConv2d (
          )
          (norm.2): BatchNorm2d(192, eps=1e-05, momentum=0.1, affine=True)
          (relu.2): ReLU (inplace)
          (conv.2): ExpanderConv2d (
          )
        )
        (denselayer18): _DenseLayer (
          (norm.1): BatchNorm2d(1200, eps=1e-05, momentum=0.1, affine=True)
          (relu.1): ReLU (inplace)
          (conv.1): ExpanderConv2d (
          )
          (norm.2): BatchNorm2d(192, eps=1e-05, momentum=0.1, affine=True)
          (relu.2): ReLU (inplace)
          (conv.2): ExpanderConv2d (
          )
        )
        (denselayer19): _DenseLayer (
          (norm.1): BatchNorm2d(1248, eps=1e-05, momentum=0.1, affine=True)
          (relu.1): ReLU (inplace)
          (conv.1): ExpanderConv2d (
          )
          (norm.2): BatchNorm2d(192, eps=1e-05, momentum=0.1, affine=True)
          (relu.2): ReLU (inplace)
          (conv.2): ExpanderConv2d (
          )
        )
        (denselayer20): _DenseLayer (
          (norm.1): BatchNorm2d(1296, eps=1e-05, momentum=0.1, affine=True)
          (relu.1): ReLU (inplace)
          (conv.1): ExpanderConv2d (
          )
          (norm.2): BatchNorm2d(192, eps=1e-05, momentum=0.1, affine=True)
          (relu.2): ReLU (inplace)
          (conv.2): ExpanderConv2d (
          )
        )
        (denselayer21): _DenseLayer (
          (norm.1): BatchNorm2d(1344, eps=1e-05, momentum=0.1, affine=True)
          (relu.1): ReLU (inplace)
          (conv.1): ExpanderConv2d (
          )
          (norm.2): BatchNorm2d(192, eps=1e-05, momentum=0.1, affine=True)
          (relu.2): ReLU (inplace)
          (conv.2): ExpanderConv2d (
          )
        )
        (denselayer22): _DenseLayer (
          (norm.1): BatchNorm2d(1392, eps=1e-05, momentum=0.1, affine=True)
          (relu.1): ReLU (inplace)
          (conv.1): ExpanderConv2d (
          )
          (norm.2): BatchNorm2d(192, eps=1e-05, momentum=0.1, affine=True)
          (relu.2): ReLU (inplace)
          (conv.2): ExpanderConv2d (
          )
        )
        (denselayer23): _DenseLayer (
          (norm.1): BatchNorm2d(1440, eps=1e-05, momentum=0.1, affine=True)
          (relu.1): ReLU (inplace)
          (conv.1): ExpanderConv2d (
          )
          (norm.2): BatchNorm2d(192, eps=1e-05, momentum=0.1, affine=True)
          (relu.2): ReLU (inplace)
          (conv.2): ExpanderConv2d (
          )
        )
        (denselayer24): _DenseLayer (
          (norm.1): BatchNorm2d(1488, eps=1e-05, momentum=0.1, affine=True)
          (relu.1): ReLU (inplace)
          (conv.1): ExpanderConv2d (
          )
          (norm.2): BatchNorm2d(192, eps=1e-05, momentum=0.1, affine=True)
          (relu.2): ReLU (inplace)
          (conv.2): ExpanderConv2d (
          )
        )
        (denselayer25): _DenseLayer (
          (norm.1): BatchNorm2d(1536, eps=1e-05, momentum=0.1, affine=True)
          (relu.1): ReLU (inplace)
          (conv.1): ExpanderConv2d (
          )
          (norm.2): BatchNorm2d(192, eps=1e-05, momentum=0.1, affine=True)
          (relu.2): ReLU (inplace)
          (conv.2): ExpanderConv2d (
          )
        )
        (denselayer26): _DenseLayer (
          (norm.1): BatchNorm2d(1584, eps=1e-05, momentum=0.1, affine=True)
          (relu.1): ReLU (inplace)
          (conv.1): ExpanderConv2d (
          )
          (norm.2): BatchNorm2d(192, eps=1e-05, momentum=0.1, affine=True)
          (relu.2): ReLU (inplace)
          (conv.2): ExpanderConv2d (
          )
        )
        (denselayer27): _DenseLayer (
          (norm.1): BatchNorm2d(1632, eps=1e-05, momentum=0.1, affine=True)
          (relu.1): ReLU (inplace)
          (conv.1): ExpanderConv2d (
          )
          (norm.2): BatchNorm2d(192, eps=1e-05, momentum=0.1, affine=True)
          (relu.2): ReLU (inplace)
          (conv.2): ExpanderConv2d (
          )
        )
        (denselayer28): _DenseLayer (
          (norm.1): BatchNorm2d(1680, eps=1e-05, momentum=0.1, affine=True)
          (relu.1): ReLU (inplace)
          (conv.1): ExpanderConv2d (
          )
          (norm.2): BatchNorm2d(192, eps=1e-05, momentum=0.1, affine=True)
          (relu.2): ReLU (inplace)
          (conv.2): ExpanderConv2d (
          )
        )
        (denselayer29): _DenseLayer (
          (norm.1): BatchNorm2d(1728, eps=1e-05, momentum=0.1, affine=True)
          (relu.1): ReLU (inplace)
          (conv.1): ExpanderConv2d (
          )
          (norm.2): BatchNorm2d(192, eps=1e-05, momentum=0.1, affine=True)
          (relu.2): ReLU (inplace)
          (conv.2): ExpanderConv2d (
          )
        )
        (denselayer30): _DenseLayer (
          (norm.1): BatchNorm2d(1776, eps=1e-05, momentum=0.1, affine=True)
          (relu.1): ReLU (inplace)
          (conv.1): ExpanderConv2d (
          )
          (norm.2): BatchNorm2d(192, eps=1e-05, momentum=0.1, affine=True)
          (relu.2): ReLU (inplace)
          (conv.2): ExpanderConv2d (
          )
        )
        (denselayer31): _DenseLayer (
          (norm.1): BatchNorm2d(1824, eps=1e-05, momentum=0.1, affine=True)
          (relu.1): ReLU (inplace)
          (conv.1): ExpanderConv2d (
          )
          (norm.2): BatchNorm2d(192, eps=1e-05, momentum=0.1, affine=True)
          (relu.2): ReLU (inplace)
          (conv.2): ExpanderConv2d (
          )
        )
        (denselayer32): _DenseLayer (
          (norm.1): BatchNorm2d(1872, eps=1e-05, momentum=0.1, affine=True)
          (relu.1): ReLU (inplace)
          (conv.1): ExpanderConv2d (
          )
          (norm.2): BatchNorm2d(192, eps=1e-05, momentum=0.1, affine=True)
          (relu.2): ReLU (inplace)
          (conv.2): ExpanderConv2d (
          )
        )
        (denselayer33): _DenseLayer (
          (norm.1): BatchNorm2d(1920, eps=1e-05, momentum=0.1, affine=True)
          (relu.1): ReLU (inplace)
          (conv.1): ExpanderConv2d (
          )
          (norm.2): BatchNorm2d(192, eps=1e-05, momentum=0.1, affine=True)
          (relu.2): ReLU (inplace)
          (conv.2): ExpanderConv2d (
          )
        )
        (denselayer34): _DenseLayer (
          (norm.1): BatchNorm2d(1968, eps=1e-05, momentum=0.1, affine=True)
          (relu.1): ReLU (inplace)
          (conv.1): ExpanderConv2d (
          )
          (norm.2): BatchNorm2d(192, eps=1e-05, momentum=0.1, affine=True)
          (relu.2): ReLU (inplace)
          (conv.2): ExpanderConv2d (
          )
        )
        (denselayer35): _DenseLayer (
          (norm.1): BatchNorm2d(2016, eps=1e-05, momentum=0.1, affine=True)
          (relu.1): ReLU (inplace)
          (conv.1): ExpanderConv2d (
          )
          (norm.2): BatchNorm2d(192, eps=1e-05, momentum=0.1, affine=True)
          (relu.2): ReLU (inplace)
          (conv.2): ExpanderConv2d (
          )
        )
        (denselayer36): _DenseLayer (
          (norm.1): BatchNorm2d(2064, eps=1e-05, momentum=0.1, affine=True)
          (relu.1): ReLU (inplace)
          (conv.1): ExpanderConv2d (
          )
          (norm.2): BatchNorm2d(192, eps=1e-05, momentum=0.1, affine=True)
          (relu.2): ReLU (inplace)
          (conv.2): ExpanderConv2d (
          )
        )
      )
      (transition3): _Transition (
        (norm): BatchNorm2d(2112, eps=1e-05, momentum=0.1, affine=True)
        (relu): ReLU (inplace)
        (conv): Conv2d(2112, 1056, kernel_size=(1, 1), stride=(1, 1), bias=False)
        (pool): AvgPool2d (size=2, stride=2, padding=0, ceil_mode=False, count_include_pad=True)
      )
      (denseblock4): _DenseBlock (
        (denselayer1): _DenseLayer (
          (norm.1): BatchNorm2d(1056, eps=1e-05, momentum=0.1, affine=True)
          (relu.1): ReLU (inplace)
          (conv.1): ExpanderConv2d (
          )
          (norm.2): BatchNorm2d(192, eps=1e-05, momentum=0.1, affine=True)
          (relu.2): ReLU (inplace)
          (conv.2): ExpanderConv2d (
          )
        )
        (denselayer2): _DenseLayer (
          (norm.1): BatchNorm2d(1104, eps=1e-05, momentum=0.1, affine=True)
          (relu.1): ReLU (inplace)
          (conv.1): ExpanderConv2d (
          )
          (norm.2): BatchNorm2d(192, eps=1e-05, momentum=0.1, affine=True)
          (relu.2): ReLU (inplace)
          (conv.2): ExpanderConv2d (
          )
        )
        (denselayer3): _DenseLayer (
          (norm.1): BatchNorm2d(1152, eps=1e-05, momentum=0.1, affine=True)
          (relu.1): ReLU (inplace)
          (conv.1): ExpanderConv2d (
          )
          (norm.2): BatchNorm2d(192, eps=1e-05, momentum=0.1, affine=True)
          (relu.2): ReLU (inplace)
          (conv.2): ExpanderConv2d (
          )
        )
        (denselayer4): _DenseLayer (
          (norm.1): BatchNorm2d(1200, eps=1e-05, momentum=0.1, affine=True)
          (relu.1): ReLU (inplace)
          (conv.1): ExpanderConv2d (
          )
          (norm.2): BatchNorm2d(192, eps=1e-05, momentum=0.1, affine=True)
          (relu.2): ReLU (inplace)
          (conv.2): ExpanderConv2d (
          )
        )
        (denselayer5): _DenseLayer (
          (norm.1): BatchNorm2d(1248, eps=1e-05, momentum=0.1, affine=True)
          (relu.1): ReLU (inplace)
          (conv.1): ExpanderConv2d (
          )
          (norm.2): BatchNorm2d(192, eps=1e-05, momentum=0.1, affine=True)
          (relu.2): ReLU (inplace)
          (conv.2): ExpanderConv2d (
          )
        )
        (denselayer6): _DenseLayer (
          (norm.1): BatchNorm2d(1296, eps=1e-05, momentum=0.1, affine=True)
          (relu.1): ReLU (inplace)
          (conv.1): ExpanderConv2d (
          )
          (norm.2): BatchNorm2d(192, eps=1e-05, momentum=0.1, affine=True)
          (relu.2): ReLU (inplace)
          (conv.2): ExpanderConv2d (
          )
        )
        (denselayer7): _DenseLayer (
          (norm.1): BatchNorm2d(1344, eps=1e-05, momentum=0.1, affine=True)
          (relu.1): ReLU (inplace)
          (conv.1): ExpanderConv2d (
          )
          (norm.2): BatchNorm2d(192, eps=1e-05, momentum=0.1, affine=True)
          (relu.2): ReLU (inplace)
          (conv.2): ExpanderConv2d (
          )
        )
        (denselayer8): _DenseLayer (
          (norm.1): BatchNorm2d(1392, eps=1e-05, momentum=0.1, affine=True)
          (relu.1): ReLU (inplace)
          (conv.1): ExpanderConv2d (
          )
          (norm.2): BatchNorm2d(192, eps=1e-05, momentum=0.1, affine=True)
          (relu.2): ReLU (inplace)
          (conv.2): ExpanderConv2d (
          )
        )
        (denselayer9): _DenseLayer (
          (norm.1): BatchNorm2d(1440, eps=1e-05, momentum=0.1, affine=True)
          (relu.1): ReLU (inplace)
          (conv.1): ExpanderConv2d (
          )
          (norm.2): BatchNorm2d(192, eps=1e-05, momentum=0.1, affine=True)
          (relu.2): ReLU (inplace)
          (conv.2): ExpanderConv2d (
          )
        )
        (denselayer10): _DenseLayer (
          (norm.1): BatchNorm2d(1488, eps=1e-05, momentum=0.1, affine=True)
          (relu.1): ReLU (inplace)
          (conv.1): ExpanderConv2d (
          )
          (norm.2): BatchNorm2d(192, eps=1e-05, momentum=0.1, affine=True)
          (relu.2): ReLU (inplace)
          (conv.2): ExpanderConv2d (
          )
        )
        (denselayer11): _DenseLayer (
          (norm.1): BatchNorm2d(1536, eps=1e-05, momentum=0.1, affine=True)
          (relu.1): ReLU (inplace)
          (conv.1): ExpanderConv2d (
          )
          (norm.2): BatchNorm2d(192, eps=1e-05, momentum=0.1, affine=True)
          (relu.2): ReLU (inplace)
          (conv.2): ExpanderConv2d (
          )
        )
        (denselayer12): _DenseLayer (
          (norm.1): BatchNorm2d(1584, eps=1e-05, momentum=0.1, affine=True)
          (relu.1): ReLU (inplace)
          (conv.1): ExpanderConv2d (
          )
          (norm.2): BatchNorm2d(192, eps=1e-05, momentum=0.1, affine=True)
          (relu.2): ReLU (inplace)
          (conv.2): ExpanderConv2d (
          )
        )
        (denselayer13): _DenseLayer (
          (norm.1): BatchNorm2d(1632, eps=1e-05, momentum=0.1, affine=True)
          (relu.1): ReLU (inplace)
          (conv.1): ExpanderConv2d (
          )
          (norm.2): BatchNorm2d(192, eps=1e-05, momentum=0.1, affine=True)
          (relu.2): ReLU (inplace)
          (conv.2): ExpanderConv2d (
          )
        )
        (denselayer14): _DenseLayer (
          (norm.1): BatchNorm2d(1680, eps=1e-05, momentum=0.1, affine=True)
          (relu.1): ReLU (inplace)
          (conv.1): ExpanderConv2d (
          )
          (norm.2): BatchNorm2d(192, eps=1e-05, momentum=0.1, affine=True)
          (relu.2): ReLU (inplace)
          (conv.2): ExpanderConv2d (
          )
        )
        (denselayer15): _DenseLayer (
          (norm.1): BatchNorm2d(1728, eps=1e-05, momentum=0.1, affine=True)
          (relu.1): ReLU (inplace)
          (conv.1): ExpanderConv2d (
          )
          (norm.2): BatchNorm2d(192, eps=1e-05, momentum=0.1, affine=True)
          (relu.2): ReLU (inplace)
          (conv.2): ExpanderConv2d (
          )
        )
        (denselayer16): _DenseLayer (
          (norm.1): BatchNorm2d(1776, eps=1e-05, momentum=0.1, affine=True)
          (relu.1): ReLU (inplace)
          (conv.1): ExpanderConv2d (
          )
          (norm.2): BatchNorm2d(192, eps=1e-05, momentum=0.1, affine=True)
          (relu.2): ReLU (inplace)
          (conv.2): ExpanderConv2d (
          )
        )
        (denselayer17): _DenseLayer (
          (norm.1): BatchNorm2d(1824, eps=1e-05, momentum=0.1, affine=True)
          (relu.1): ReLU (inplace)
          (conv.1): ExpanderConv2d (
          )
          (norm.2): BatchNorm2d(192, eps=1e-05, momentum=0.1, affine=True)
          (relu.2): ReLU (inplace)
          (conv.2): ExpanderConv2d (
          )
        )
        (denselayer18): _DenseLayer (
          (norm.1): BatchNorm2d(1872, eps=1e-05, momentum=0.1, affine=True)
          (relu.1): ReLU (inplace)
          (conv.1): ExpanderConv2d (
          )
          (norm.2): BatchNorm2d(192, eps=1e-05, momentum=0.1, affine=True)
          (relu.2): ReLU (inplace)
          (conv.2): ExpanderConv2d (
          )
        )
        (denselayer19): _DenseLayer (
          (norm.1): BatchNorm2d(1920, eps=1e-05, momentum=0.1, affine=True)
          (relu.1): ReLU (inplace)
          (conv.1): ExpanderConv2d (
          )
          (norm.2): BatchNorm2d(192, eps=1e-05, momentum=0.1, affine=True)
          (relu.2): ReLU (inplace)
          (conv.2): ExpanderConv2d (
          )
        )
        (denselayer20): _DenseLayer (
          (norm.1): BatchNorm2d(1968, eps=1e-05, momentum=0.1, affine=True)
          (relu.1): ReLU (inplace)
          (conv.1): ExpanderConv2d (
          )
          (norm.2): BatchNorm2d(192, eps=1e-05, momentum=0.1, affine=True)
          (relu.2): ReLU (inplace)
          (conv.2): ExpanderConv2d (
          )
        )
        (denselayer21): _DenseLayer (
          (norm.1): BatchNorm2d(2016, eps=1e-05, momentum=0.1, affine=True)
          (relu.1): ReLU (inplace)
          (conv.1): ExpanderConv2d (
          )
          (norm.2): BatchNorm2d(192, eps=1e-05, momentum=0.1, affine=True)
          (relu.2): ReLU (inplace)
          (conv.2): ExpanderConv2d (
          )
        )
        (denselayer22): _DenseLayer (
          (norm.1): BatchNorm2d(2064, eps=1e-05, momentum=0.1, affine=True)
          (relu.1): ReLU (inplace)
          (conv.1): ExpanderConv2d (
          )
          (norm.2): BatchNorm2d(192, eps=1e-05, momentum=0.1, affine=True)
          (relu.2): ReLU (inplace)
          (conv.2): ExpanderConv2d (
          )
        )
        (denselayer23): _DenseLayer (
          (norm.1): BatchNorm2d(2112, eps=1e-05, momentum=0.1, affine=True)
          (relu.1): ReLU (inplace)
          (conv.1): ExpanderConv2d (
          )
          (norm.2): BatchNorm2d(192, eps=1e-05, momentum=0.1, affine=True)
          (relu.2): ReLU (inplace)
          (conv.2): ExpanderConv2d (
          )
        )
        (denselayer24): _DenseLayer (
          (norm.1): BatchNorm2d(2160, eps=1e-05, momentum=0.1, affine=True)
          (relu.1): ReLU (inplace)
          (conv.1): ExpanderConv2d (
          )
          (norm.2): BatchNorm2d(192, eps=1e-05, momentum=0.1, affine=True)
          (relu.2): ReLU (inplace)
          (conv.2): ExpanderConv2d (
          )
        )
      )
      (norm5): BatchNorm2d(2208, eps=1e-05, momentum=0.1, affine=True)
    )
    (classifier): Linear (2208 -> 1000)
  )
)
=> loading checkpoint 'savedmodels/densenetexpander161_imagenet_densenetexpander161_expandsize2_nov13_best.pth.tar'
=> loaded checkpoint 'savedmodels/densenetexpander161_imagenet_densenetexpander161_expandsize2_nov13_best.pth.tar' (epoch 14)
Starting epoch number: 14 Learning rate: 0.1
Train: [14][0/10010]	Time 24.348 (24.348)	Data 1.063 (1.063)	Loss 2.354	Prec@1 43.7500	Prec@5 71.8750
…
