…
='decayschedular', logdir='../logs/mobilenet_imagenet_reproduction_0.5', lr=0.1, manualSeed=123, maxlr=0.1, minlr=5e-05, model_def='mobilenet', momentum=0.9, name='mobilenet_imagenet_reproduction_0.5', nclasses=1000, nesterov=False, ngpus=2, optimType='sgd', pretrained=False, pretrained_file='', printfreq=200, reduce=0.5, resume='', sp=1, start_epoch=0, store='', tenCrop=False, tensorboard=False, testOnly=False, verbose=False, weightDecay=4e-05, weight_init=False, widen_factor=4, widthmult=0.5, workers=8)
DataParallel(
  (module): Net(
    (model): Sequential(
      (0): Sequential(
        (0): Conv2d(3, 32, kernel_size=(3, 3), stride=(2, 2), padding=(1, 1), bias=False)
        (1): BatchNorm2d(32, eps=1e-05, momentum=0.1, affine=True)
        (2): ReLU(inplace)
      )
      (1): Sequential(
        (0): Conv2d(32, 32, kernel_size=(3, 3), stride=(1, 1), padding=(1, 1), groups=32, bias=False)
        (1): BatchNorm2d(32, eps=1e-05, momentum=0.1, affine=True)
        (2): ReLU6(inplace)
        (3): Conv2d(32, 32, kernel_size=(1, 1), stride=(1, 1), bias=False)
        (4): BatchNorm2d(32, eps=1e-05, momentum=0.1, affine=True)
        (5): ReLU6(inplace)
      )
      (2): Sequential(
        (0): Conv2d(32, 32, kernel_size=(3, 3), stride=(2, 2), padding=(1, 1), groups=32, bias=False)
        (1): BatchNorm2d(32, eps=1e-05, momentum=0.1, affine=True)
        (2): ReLU6(inplace)
        (3): Conv2d(32, 64, kernel_size=(1, 1), stride=(1, 1), bias=False)
        (4): BatchNorm2d(64, eps=1e-05, momentum=0.1, affine=True)
        (5): ReLU6(inplace)
      )
      (3): Sequential(
        (0): Conv2d(64, 64, kernel_size=(3, 3), stride=(1, 1), padding=(1, 1), groups=64, bias=False)
        (1): BatchNorm2d(64, eps=1e-05, momentum=0.1, affine=True)
        (2): ReLU6(inplace)
        (3): Conv2d(64, 64, kernel_size=(1, 1), stride=(1, 1), bias=False)
        (4): BatchNorm2d(64, eps=1e-05, momentum=0.1, affine=True)
        (5): ReLU6(inplace)
      )
      (4): Sequential(
        (0): Conv2d(64, 64, kernel_size=(3, 3), stride=(2, 2), padding=(1, 1), groups=64, bias=False)
        (1): BatchNorm2d(64, eps=1e-05, momentum=0.1, affine=True)
        (2): ReLU6(inplace)
        (3): Conv2d(64, 128, kernel_size=(1, 1), stride=(1, 1), bias=False)
        (4): BatchNorm2d(128, eps=1e-05, momentum=0.1, affine=True)
        (5): ReLU6(inplace)
      )
      (5): Sequential(
        (0): Conv2d(128, 128, kernel_size=(3, 3), stride=(1, 1), padding=(1, 1), groups=128, bias=False)
        (1): BatchNorm2d(128, eps=1e-05, momentum=0.1, affine=True)
        (2): ReLU6(inplace)
        (3): Conv2d(128, 128, kernel_size=(1, 1), stride=(1, 1), bias=False)
        (4): BatchNorm2d(128, eps=1e-05, momentum=0.1, affine=True)
        (5): ReLU6(inplace)
      )
      (6): Sequential(
        (0): Conv2d(128, 128, kernel_size=(3, 3), stride=(2, 2), padding=(1, 1), groups=128, bias=False)
        (1): BatchNorm2d(128, eps=1e-05, momentum=0.1, affine=True)
        (2): ReLU6(inplace)
        (3): Conv2d(128, 256, kernel_size=(1, 1), stride=(1, 1), bias=False)
        (4): BatchNorm2d(256, eps=1e-05, momentum=0.1, affine=True)
        (5): ReLU6(inplace)
      )
      (7): Sequential(
        (0): Conv2d(256, 256, kernel_size=(3, 3), stride=(1, 1), padding=(1, 1), groups=256, bias=False)
        (1): BatchNorm2d(256, eps=1e-05, momentum=0.1, affine=True)
        (2): ReLU6(inplace)
        (3): Conv2d(256, 256, kernel_size=(1, 1), stride=(1, 1), bias=False)
        (4): BatchNorm2d(256, eps=1e-05, momentum=0.1, affine=True)
        (5): ReLU6(inplace)
      )
      (8): Sequential(
        (0): Conv2d(256, 256, kernel_size=(3, 3), stride=(1, 1), padding=(1, 1), groups=256, bias=False)
        (1): BatchNorm2d(256, eps=1e-05, momentum=0.1, affine=True)
        (2): ReLU6(inplace)
        (3): Conv2d(256, 256, kernel_size=(1, 1), stride=(1, 1), bias=False)
        (4): BatchNorm2d(256, eps=1e-05, momentum=0.1, affine=True)
        (5): ReLU6(inplace)
      )
      (9): Sequential(
        (0): Conv2d(256, 256, kernel_size=(3, 3), stride=(1, 1), padding=(1, 1), groups=256, bias=False)
        (1): BatchNorm2d(256, eps=1e-05, momentum=0.1, affine=True)
        (2): ReLU6(inplace)
        (3): Conv2d(256, 256, kernel_size=(1, 1), stride=(1, 1), bias=False)
        (4): BatchNorm2d(256, eps=1e-05, momentum=0.1, affine=True)
        (5): ReLU6(inplace)
      )
      (10): Sequential(
        (0): Conv2d(256, 256, kernel_size=(3, 3), stride=(1, 1), padding=(1, 1), groups=256, bias=False)
        (1): BatchNorm2d(256, eps=1e-05, momentum=0.1, affine=True)
        (2): ReLU6(inplace)
        (3): Conv2d(256, 256, kernel_size=(1, 1), stride=(1, 1), bias=False)
        (4): BatchNorm2d(256, eps=1e-05, momentum=0.1, affine=True)
        (5): ReLU6(inplace)
      )
      (11): Sequential(
        (0): Conv2d(256, 256, kernel_size=(3, 3), stride=(1, 1), padding=(1, 1), groups=256, bias=False)
        (1): BatchNorm2d(256, eps=1e-05, momentum=0.1, affine=True)
        (2): ReLU6(inplace)
        (3): Conv2d(256, 256, kernel_size=(1, 1), stride=(1, 1), bias=False)
        (4): BatchNorm2d(256, eps=1e-05, momentum=0.1, affine=True)
        (5): ReLU6(inplace)
      )
      (12): Sequential(
        (0): Conv2d(256, 256, kernel_size=(3, 3), stride=(2, 2), padding=(1, 1), groups=256, bias=False)
        (1): BatchNorm2d(256, eps=1e-05, momentum=0.1, affine=True)
        (2): ReLU6(inplace)
        (3): Conv2d(256, 512, kernel_size=(1, 1), stride=(1, 1), bias=False)
        (4): BatchNorm2d(512, eps=1e-05, momentum=0.1, affine=True)
        (5): ReLU6(inplace)
      )
      (13): Sequential(
        (0): Conv2d(512, 512, kernel_size=(3, 3), stride=(1, 1), padding=(1, 1), groups=512, bias=False)
        (1): BatchNorm2d(512, eps=1e-05, momentum=0.1, affine=True)
        (2): ReLU6(inplace)
        (3): Conv2d(512, 1024, kernel_size=(1, 1), stride=(1, 1), bias=False)
        (4): BatchNorm2d(1024, eps=1e-05, momentum=0.1, affine=True)
        (5): ReLU6(inplace)
      )
      (14): AvgPool2d(kernel_size=7, stride=7, padding=0, ceil_mode=False, count_include_pad=True)
    )
    (fc): Linear(in_features=1024, out_features=1000, bias=True)
  )
)
('Starting epoch number:', 0, 'Learning rate:', 0.1)
Train: [0]	Time 2358.591	Data 789.423	Loss 5.069	Prec@1 9.6279	Prec@5 23.6753	
Val: [0]	Time 90.839	Data 71.991	Loss 4.036	Prec@1 19.1960	Prec@5 41.4500	
Best Prec@1: [19.196]	
('Starting epoch number:', 1, 'Learning rate:', 0.1)
Train: [1]	Time 2430.552	Data 853.384	Loss 3.798	Prec@1 23.7353	Prec@5 46.6337	
…
