…
=0.05, manualSeed=123, maxlr=0.05, minlr=0.0005, model_def='vgg16cifar_bnexpander', momentum=0.9, name='vgg16expander_64*3_16*9_128_codefinal_test', nclasses=10, nesterov=True, ngpus=1, optimType='sgd', pretrained=False, pretrained_file='', printfreq=200, reduce=0.5, resume='', sp=1, start_epoch=0, store='', tenCrop=False, tensorboard=False, testOnly=False, verbose=False, weightDecay=0.0005, weight_init=False, widen_factor=4, widthmult=1.0, workers=2)
VGG(
  (features): DataParallel(
    (module): Sequential(
      (0): Conv2d (3, 64, kernel_size=(3, 3), stride=(1, 1), padding=(1, 1))
      (1): BatchNorm2d(64, eps=1e-05, momentum=0.1, affine=True)
      (2): ReLU(inplace)
      (3): Conv2d (64, 64, kernel_size=(3, 3), stride=(1, 1), padding=(1, 1))
      (4): BatchNorm2d(64, eps=1e-05, momentum=0.1, affine=True)
      (5): ReLU(inplace)
      (6): MaxPool2d(kernel_size=(2, 2), stride=(2, 2), dilation=(1, 1))
      (7): Conv2d (64, 128, kernel_size=(3, 3), stride=(1, 1), padding=(1, 1))
      (8): BatchNorm2d(128, eps=1e-05, momentum=0.1, affine=True)
      (9): ReLU(inplace)
      (10): ExpanderConv2d(
      )
      (11): BatchNorm2d(128, eps=1e-05, momentum=0.1, affine=True)
      (12): ReLU(inplace)
      (13): MaxPool2d(kernel_size=(2, 2), stride=(2, 2), dilation=(1, 1))
      (14): ExpanderConv2d(
      )
      (15): BatchNorm2d(256, eps=1e-05, momentum=0.1, affine=True)
      (16): ReLU(inplace)
      (17): ExpanderConv2d(
      )
      (18): BatchNorm2d(256, eps=1e-05, momentum=0.1, affine=True)
      (19): ReLU(inplace)
      (20): ExpanderConv2d(
      )
      (21): BatchNorm2d(256, eps=1e-05, momentum=0.1, affine=True)
      (22): ReLU(inplace)
      (23): MaxPool2d(kernel_size=(2, 2), stride=(2, 2), dilation=(1, 1))
      (24): ExpanderConv2d(
      )
      (25): BatchNorm2d(512, eps=1e-05, momentum=0.1, affine=True)
      (26): ReLU(inplace)
      (27): ExpanderConv2d(
      )
      (28): BatchNorm2d(512, eps=1e-05, momentum=0.1, affine=True)
      (29): ReLU(inplace)
      (30): ExpanderConv2d(
      )
      (31): BatchNorm2d(512, eps=1e-05, momentum=0.1, affine=True)
      (32): ReLU(inplace)
      (33): MaxPool2d(kernel_size=(2, 2), stride=(2, 2), dilation=(1, 1))
      (34): ExpanderConv2d(
      )
      (35): BatchNorm2d(512, eps=1e-05, momentum=0.1, affine=True)
      (36): ReLU(inplace)
      (37): ExpanderConv2d(
      )
      (38): BatchNorm2d(512, eps=1e-05, momentum=0.1, affine=True)
      (39): ReLU(inplace)
      (40): ExpanderConv2d(
      )
      (41): BatchNorm2d(512, eps=1e-05, momentum=0.1, affine=True)
      (42): ReLU(inplace)
      (43): MaxPool2d(kernel_size=(2, 2), stride=(2, 2), dilation=(1, 1))
    )
  )
  (classifier): Sequential(
    (0): ExpanderLinear(
    )
    (1): ReLU(inplace)
    (2): Linear(in_features=512, out_features=10)
  )
)
Files already downloaded and verified
('Starting epoch number:', 0, 'Learning rate:', 0.05)
Train: [0]	Time 22.879	Data 0.287	Loss 1.382	Prec@1 49.2920	Prec@5 92.1020	
Val: [0]	Time 1.485	Data 0.087	Loss 1.161	Prec@1 58.8500	Prec@5 95.4700	
Best Prec@1: [58.850]	
('Starting epoch number:', 1, 'Learning rate:', 0.05)
Train: [1]	Time 20.726	Data 0.266	Loss 0.900	Prec@1 68.5280	Prec@5 97.3160	
…
