…
gg16_bn_codefinal_test', lr=0.05, manualSeed=123, maxlr=0.05, minlr=0.0005, model_def='vgg16cifar_bn', momentum=0.9, name='vgg16_bn_codefinal_test', nclasses=10, nesterov=True, ngpus=1, optimType='sgd', pretrained=False, pretrained_file='', printfreq=200, reduce=0.5, resume='', sp=1, start_epoch=0, store='', tenCrop=False, tensorboard=False, testOnly=False, verbose=False, weightDecay=0.0005, weight_init=False, widen_factor=4, widthmult=1.0, workers=2)
VGG(
  (features): DataParallel(
    (module): Sequential(
      (0): Conv2d (3, 64, kernel_size=(3, 3), stride=(1, 1), padding=(1, 1))
      (1): BatchNorm2d(64, eps=1e-05, momentum=0.1, affine=True)
      (2): ReLU(inplace)
      (3): Conv2d (64, 64, kernel_size=(3, 3), stride=(1, 1), padding=(1, 1))
      (4): BatchNorm2d(64, eps=1e-05, momentum=0.1, affine=True)
      (5): ReLU(inplace)
      (6): MaxPool2d(kernel_size=(2, 2), stride=(2, 2), dilation=(1, 1))
      (7): Conv2d (64, 128, kernel_size=(3, 3), stride=(1, 1), padding=(1, 1))
      (8): BatchNorm2d(128, eps=1e-05, momentum=0.1, affine=True)
      (9): ReLU(inplace)
      (10): Conv2d (128, 128, kernel_size=(3, 3), stride=(1, 1), padding=(1, 1))
      (11): BatchNorm2d(128, eps=1e-05, momentum=0.1, affine=True)
      (12): ReLU(inplace)
      (13): MaxPool2d(kernel_size=(2, 2), stride=(2, 2), dilation=(1, 1))
      (14): Conv2d (128, 256, kernel_size=(3, 3), stride=(1, 1), padding=(1, 1))
      (15): BatchNorm2d(256, eps=1e-05, momentum=0.1, affine=True)
      (16): ReLU(inplace)
      (17): Conv2d (256, 256, kernel_size=(3, 3), stride=(1, 1), padding=(1, 1))
      (18): BatchNorm2d(256, eps=1e-05, momentum=0.1, affine=True)
      (19): ReLU(inplace)
      (20): Conv2d (256, 256, kernel_size=(3, 3), stride=(1, 1), padding=(1, 1))
      (21): BatchNorm2d(256, eps=1e-05, momentum=0.1, affine=True)
      (22): ReLU(inplace)
      (23): MaxPool2d(kernel_size=(2, 2), stride=(2, 2), dilation=(1, 1))
      (24): Conv2d (256, 512, kernel_size=(3, 3), stride=(1, 1), padding=(1, 1))
      (25): BatchNorm2d(512, eps=1e-05, momentum=0.1, affine=True)
      (26): ReLU(inplace)
      (27): Conv2d (512, 512, kernel_size=(3, 3), stride=(1, 1), padding=(1, 1))
      (28): BatchNorm2d(512, eps=1e-05, momentum=0.1, affine=True)
      (29): ReLU(inplace)
      (30): Conv2d (512, 512, kernel_size=(3, 3), stride=(1, 1), padding=(1, 1))
      (31): BatchNorm2d(512, eps=1e-05, momentum=0.1, affine=True)
      (32): ReLU(inplace)
      (33): MaxPool2d(kernel_size=(2, 2), stride=(2, 2), dilation=(1, 1))
      (34): Conv2d (512, 512, kernel_size=(3, 3), stride=(1, 1), padding=(1, 1))
      (35): BatchNorm2d(512, eps=1e-05, momentum=0.1, affine=True)
      (36): ReLU(inplace)
      (37): Conv2d (512, 512, kernel_size=(3, 3), stride=(1, 1), padding=(1, 1))
      (38): BatchNorm2d(512, eps=1e-05, momentum=0.1, affine=True)
      (39): ReLU(inplace)
      (40): Conv2d (512, 512, kernel_size=(3, 3), stride=(1, 1), padding=(1, 1))
      (41): BatchNorm2d(512, eps=1e-05, momentum=0.1, affine=True)
      (42): ReLU(inplace)
      (43): MaxPool2d(kernel_size=(2, 2), stride=(2, 2), dilation=(1, 1))
    )
  )
  (classifier): Sequential(
    (0): Linear(in_features=512, out_features=512)
    (1): ReLU(inplace)
    (2): Linear(in_features=512, out_features=10)
  )
)
Files already downloaded and verified
('Starting epoch number:', 0, 'Learning rate:', 0.05)
Train: [0]	Time 40.730	Data 0.252	Loss 1.379	Prec@1 49.4540	Prec@5 91.7620	
Val: [0]	Time 2.564	Data 0.096	Loss 1.092	Prec@1 61.2900	Prec@5 95.9500	
Best Prec@1: [61.290]	
('Starting epoch number:', 1, 'Learning rate:', 0.05)
Train: [1]	Time 37.140	Data 0.271	Loss 0.897	Prec@1 68.7980	Prec@5 97.1520	
…
